mlp_eigenvalue_model.pth (torch, 695772 bytes, 7 tensors)

layers.0.weight f4 [512, 16]
0.09166292 -0.23350601 0.18924238 -0.019984968 0.089903295 -0.03083932 0.022106772 0.065208666
-0.10056393 0.18608645 0.17480204 0.16534425 0.1259594 0.17418262 -0.13296632 -0.19711782
0.25227475 -0.20969082 0.16456693 0.08899194 -0.24547006 0.1271337 -0.122999266 -0.0063546416
-0.16237767 0.040282276 -0.05199774 -0.14005063 -0.23101164 0.20401916 0.12568666 -0.15230116
0.050396908 0.22699183 -0.06667793 -0.1778025 0.015687343 0.03325769 -0.12431217 0.05599877
0.20563275 0.19072577 -0.14596537 -0.037268944 -0.11545386 -0.24711485 0.017214414 0.14309615
-0.12520799 0.054904096 0.18621501 0.046791133 0.06864644 -0.008951432 -0.17173831 0.07581602
0.24415699 -0.047677055 0.24395226 0.21625109 0.22502184 -0.16319595 0.22179697 -0.19602153
0.18590206 0.24621299 0.032390263 -0.24469599 -0.07502418 -0.11898811 0.0072409147 -0.012182206
0.004434888 -0.13712542 -0.008854473 -0.15911789 -0.13555436 0.24512163 0.09798072 0.08427523
-0.004261945 0.06146101 -0.09765936 -0.23351651 0.07506576 0.1545657 0.08187909 0.1922009
0.048058424 0.27784848 0.14816223 -0.17682298 -0.12142659 0.04352443 -0.15342708 0.003812371
-0.15341583 -0.001899975 -0.124587595 -0.06402999 -0.063448526 -0.16617578 0.23756677 -0.16295382
-0.18882476 0.0015136867 0.045095716 -0.112545334 -0.17806254 0.13746332 0.21574461 -0.17597522
-0.22652537 -0.13273169 0.014571984 0.0770636 -0.14042194 -0.026453706 0.18755695 -0.12811577
-0.030133633 0.023381494 0.25578457 -0.12951955 0.09473405 0.15569653 -0.17722945 0.058167655
-0.15801574 -0.19503653 0.18505688 0.19826786 0.18908706 0.019482618 0.1835174 -0.013374509
0.2114218 0.26069835 0.1888662 -0.015831603 0.0013106838 0.21481001 0.04562377 0.21653968
0.11720918 -0.12662062 0.05701098 -0.029734138 -0.24620311 0.1169435 0.20105219 0.0067498987
-0.014062352 -0.09524805 0.05982492 0.1560438 0.21003442 0.063403144 0.18713868 -0.2267379
-0.19637497 -0.1351041 0.136911 0.19739604 0.12474995 0.1592189 -0.17746261 -0.110961355
-0.07757026 0.09258828 0.20348838 0.13715573 -0.20966148 -0.07354231 0.10559545 0.25160277
-0.15722416 -0.2095283 0.19814207 0.057119254 0.20135558 -0.16946702 -0.027020374 0.16958332
0.036243305 0.122364216 -0.1165489 0.21908246 -0.1012875 0.07011393 0.13147864 0.15779538
-0.056467995 -0.12026168 0.008648621 -0.1266852 -0.13859366 -0.029078677 0.20384909 0.21363132
-0.16108546 -0.136523 0.11529275 0.10226906 -0.13894178 0.18766414 0.16192356 0.05854962
0.2549602 0.19505888 -0.090331756 -0.074036285 0.09012948 -0.25308675 -0.13815062 -0.19678704
-0.23233771 0.2021615 0.16160029 -0.11173009 -0.03474702 0.08792618 -0.17254296 -0.0414004
-0.073904224 0.20992932 0.083160184 -0.092843324 -0.178485 -0.20957603 0.19294827 -0.14283776
0.22697619 0.062039655 -0.20527907 0.15225632 0.2110688 -0.18011692 -0.11218609 0.03389745
-0.20321327 -0.017919235 0.17334801 -0.21847789 -0.050517175 -0.035649367 0.015160214 -0.23928724
0.21773905 0.024153056 -0.18868712 -0.1547115 -0.029779179 0.21516255 0.11714642 -0.21112923
00000000: c5b9 bb3d 331c 6fbe c1c8 413e 84b7 a3bc
00000010: 381f b83d bea2 fcbc 4319 b53c 1f8c 853d
00000020: 76f4 cdbd 728d 3e3e 4eff 323e 0150 293e
00000030: 80fb 003e ee5c 323e 5328 08be 41d9 49be
00000040: 282a 813e 31b9 56be 3c84 283e 6841 b63d
00000050: 815c 7bbe 562f 023e 0ae7 fbbd 993a d0bb
00000060: 5546 26be 07ff 243d 95fb 54bd 6f69 0fbe
00000070: 518e 6cbe 66ea 503e 01b4 003e d6f4 1bbe
00000080: fd6c 4e3d 8c70 683e 708e 88bd dc11 36be
00000090: be82 803c 3739 083d 6197 febd f75e 653d
000000a0: 6491 523e 9e4d 433e f277 15be 52a7 18bd
000000b0: 1373 ecbd ad0b 7dbe 3e05 8d3c cc87 123e
000000c0: 8636 00be 1ee3 603d 26af 3e3e 0fa8 3f3d
000000d0: 8196 8c3d 07a9 12bc 2bdc 2fbe 6e45 9b3d
000000e0: 4a04 7a3e 0449 43bd 9fce 793e ed70 5d3e
000000f0: 206c 663e d71c 27be bf1e 633e deb9 48be
00000100: 1c5d 3e3e 421f 7c3e a7ab 043d 9691 7abe
00000110: 47a6 99bd 0ab0 f3bd 3245 ed3b e097 47bc
00000120: 8952 913b 9b6a 0cbe 5a12 11bc cdef 22be
00000130: c3ce 0abe 2a01 7b3e 1eaa c83d 7e98 ac3d
00000140: c9a7 8bbb 8abe 7b3d a101 c8bd f41e 6fbe
00000150: 14bc 993d 7946 1e3e 39b0 a73d 50d0 443e
00000160: e9d8 443d 2842 8e3e d7b7 173e 1511 35be
00000170: 81ae f8bd ac46 323d fd1b 1dbe f9d8 793b
00000180: 0a19 1dbe 9508 f9ba c827 ffbd 2822 83bd
00000190: 4df1 81bd fc29 2abe b444 733e 5edd 26be
000001a0: 475b 41be e666 c63a 49b6 383d 2b7e e6bd
000001b0: 0756 36be 2fc3 0c3e 28ec 5c3e d932 34be
000001c0: 44f6 67be d1ea 07be 55bf 6e3c 85d3 9d3d
000001d0: c5ca 0fbe 71b5 d8bc ee0e 403e c830 03be
000001e0: cfda f6bc 8c8a bf3c 32f6 823e c6a0 04be
000001f0: ed03 c23d e96e 1f3e a37b 35be 3541 6e3d
00000200: e1ce 21be a8b7 47be 8d7f 3d3e bb06 4b3e
00000210: 0aa0 413e 039a 9f3c fceb 3b3e c220 5bbc
00000220: f57e 583e 417a 853e 2466 413e 47b1 81bc
00000230: 40cb ab3a 28f7 5b3e fedf 3a3d 94bc 5d3e
00000240: 5e0b f03d d6a8 01be 5884 693d 0295 f3bc
00000250: ab1c 7cbe 1380 ef3d a0e0 4d3e 412e dd3b
00000260: c765 66bc 6911 c3bd fa0a 753d f2c9 1f3e
00000270: 4313 573e 82d9 813d 48a1 3f3e fb2d 68be
00000280: 8516 49be bb58 0abe 6632 0c3e 3022 4a3e
00000290: e77c ff3d 480a 233e c2b8 35be b53f e3bd
000002a0: 28dd 9ebd ed9e bd3d 425f 503e 8d72 0c3e
000002b0: 80b1 56be 5a9d 96bd 6d42 d83d 14d2 803e
000002c0: 5fff 20be 968e 56be c1e5 4a3e e1f5 693d
000002d0: 2830 4e3e c388 2dbe d559 ddbc 40a7 2d3e
000002e0: dc73 143d 179a fa3d 31b1 eebd 2757 603e
000002f0: d26f cfbd e497 8f3d 56a2 063e 1d95 213e
00000300: fc4a 67bd c14b f6bd f2b2 0d3c c4b9 01be
00000310: 7feb 0dbe 6836 eebc d1bd 503e 2bc2 5a3e
00000320: 96f3 24be afcc 0bbe 9b1e ec3d 7172 d13d
00000330: c146 0ebe 072b 403e 4acf 253e bad1 6f3d
00000340: 258a 823e 84bd 473e dbff b8bd 56a0 97bd
00000350: ce95 b83d 9694 81be 5b77 0dbe 8b82 49be
00000360: f0e9 6dbe 6d03 4f3e 8c7a 253e bfd2 e4bd
00000370: e452 0ebd a412 b43d 1aaf 30be 7793 29bd
00000380: 195b 97bd b6f7 563e e34f aa3d a424 bebd
00000390: c6c4 36be 199b 56be 3b94 453e 1044 12be
000003a0: 726c 683e 4b1d 7e3d ad34 52be 15e9 1b3e
000003b0: 6b22 583e 9270 38be d2c1 e5bd 0dd8 0a3d
000003c0: 2417 50be 5ccb 92bc 2482 313e abb8 5fbe
000003d0: 19eb 4ebd 1205 12bd 8c62 783c b707 75be
000003e0: fcf6 5e3e a1dc c53c 3237 41be b16c 1ebe
000003f0: 77f3 f3bc 9253 5c3e 76ea ef3d 4332 58be

layers.0.bias f4 [512]
0.098156266 -0.24434514 -0.122747056 -0.26348442 0.016818408 0.009411775 -0.109039724 -0.016601501
-0.09141858 0.16515349 0.04915958 -0.14126877 -0.19709991 0.07072801 -0.0037049337 -0.20991476
-0.09371518 -0.13219452 -0.1965916 -0.24941106 -0.21950716 -0.23017026 -0.17395778 -0.23659486
-0.07332789 0.17261477 -0.19566663 -0.040688578 -0.18963537 -0.097606614 -0.06230129 0.22438695
0.015170589 -0.085340865 0.08991822 -0.18897423 -0.037870303 -0.053548772 0.20301495 0.0002939916
-0.10100135 0.23671031 0.087814555 0.034131326 -0.03367708 0.08381504 -0.23206103 0.14807755
0.1597593 -0.23440944 -0.21685998 -0.16402598 0.13343677 -0.178475 -0.015043503 -0.03415567
0.23185188 0.06809287 -0.10748984 0.22737479 0.18872382 0.1685641 -0.003956878 0.07405588
0.08779658 -0.11232873 -0.010044311 0.1657757 -0.06694072 -0.028657354 0.064576715 -0.24828357
-0.29186454 -0.22670825 0.20136641 0.047610175 -0.25674698 0.23356208 -0.07120007 0.16844143
-0.17995152 0.17386727 0.08808028 -0.035825312 -0.23491628 -0.15939075 0.016622119 -0.036094815
-0.19427772 -0.031467628 -0.105276294 -0.10334285 -0.20949385 -0.20180866 0.1808248 -0.2154162
0.23473975 -0.1855324 -0.21658453 -0.03223213 0.13877085 -0.10433195 -0.24384868 0.054459676
0.04088439 -0.13658711 0.103506856 -0.062666915 0.07998948 -0.046637025 0.04757515 -0.19863
0.10238133 0.19937082 0.20675623 -0.17951481 -0.048914373 -0.004508153 0.15084016 -0.03522698
0.083770745 -0.11543771 -0.19915034 0.13700971 -0.14666708 -0.02739461 0.20901847 0.034693565
-0.16738561 0.2066409 0.05683065 -0.19856538 0.05754035 0.12453176 0.04171934 0.11140004
-0.08780632 -0.06115341 0.09994188 -0.09650867 -0.1576334 0.1161377 -0.045798227 0.12548108
-0.14861874 -0.059609365 0.1397067 0.11035057 0.02380635 -0.062361095 0.038440015 -0.007118052
0.19333982 0.18963711 -0.06006929 -0.18717796 -0.067186765 0.19053203 0.024206337 -0.17124206
-0.018113395 -0.18144512 -0.267252 -0.17993906 -0.20027223 -0.1903744 0.020500574 0.20365763
-0.09913705 0.2152503 0.009286957 0.109510235 0.041641757 -0.12750147 0.06011252 0.1770938
-0.14762701 -0.0026707188 0.19272782 0.20155255 0.038643852 -0.035273477 -0.22740673 -0.0025012942
-0.21342912 0.0732339 0.19881216 0.048402652 0.14694104 0.09971999 -0.067230605 0.07676402
0.1133647 -0.2519336 -0.20459834 0.04524846 -0.011829167 -0.16865279 -0.111123025 -0.20236287
-0.012575879 0.05437246 -0.07515637 -0.22140183 -0.19487897 -0.031527255 0.20356031 0.23047969
0.034091853 -0.05188734 0.15737438 -0.19126289 -0.18673995 -0.02670394 0.1951374 -0.05316739
0.18760881 0.06530752 0.062547185 -0.0014931457 0.17070986 -0.24876516 -0.12593018 -0.02990526
0.24605858 0.08406574 -0.20632239 0.018301623 -0.086986616 -0.11034167 -0.16087288 0.010789712
-0.13243476 0.18171746 0.1278059 0.18554942 -0.10997835 0.09617331 0.17279416 -0.22123197
-0.08419424 0.24762905 -0.17573372 -0.09762481 0.13849372 -0.15769151 0.07059584 -0.027585387
0.011343306 -0.19111502 0.12996222 0.21167219 0.20549203 -0.025276102 -0.1086734 0.243583
00000000: 2706 c93d 9d35 7abe cf62 fbbd 6ee7 86be
00000010: c2c6 893c d833 1a3c 3850 dfbd dfff 87bc
00000020: aa39 bbbd ff1d 293e 8e5b 493d c3a8 10be
00000030: 8fd4 49be d9d9 903d 79ce 72bb e5f3 56be
00000040: bfed bfbd 005e 07be 4f4f 49be 9d65 7fbe
00000050: 7cc6 60be c1b1 6bbe fd21 32be ec45 72be
00000060: ef2c 96bd edc1 303e d55c 48be 11a9 26bd
00000070: c62f 42be fae5 c7bd a32f 7fbd b1c5 653e
00000080: 108e 783c 31c7 aebd 0b27 b83d 7682 41be
00000090: e41d 1bbd f555 5bbd 27e3 4f3e e222 9a39
000000a0: ccd9 cebd 3064 723e 1ed8 b33d 4acd 0b3d
000000b0: faf0 09bd 38a7 ab3d 68a1 6dbe a4a1 173e
000000c0: f197 233e 0709 70be 8b10 5ebe 6df6 27be
000000d0: a6a3 083e 27c2 36be 0679 76bc d1e6 0bbd
000000e0: 946a 6d3e 4674 8b3d a223 dcbd f0d4 683e
000000f0: d140 413e 119c 2c3e b3a8 81bb 9caa 973d
00000100: b1ce b33d 9b0c e6bd e590 24bc 1bc1 293e
00000110: 3718 89bd d4c2 eabc cc40 843d 0c3e 7ebe
00000120: 456f 95be 3526 68be ff32 4e3e e302 433d
00000130: 5774 83be e62a 6f3e 58d1 91bd e97b 2c3e
00000140: 3645 38be 430a 323e 6f63 b43d 90bd 12bd
00000150: e58d 70be 5437 23be 1c2b 883c 28d8 13bd
00000160: bdf0 46be 33e4 00bd 199b d7bd 6ba5 d3bd
00000170: 8e85 56be eea6 4ebe 232a 393e 1096 5cbe
00000180: 9e5f 703e 35fc 3dbe 56c8 5dbe d705 04bd
00000190: f219 0e3e fdab d5bd 78b3 79be 1c11 5f3d
000001a0: 6476 273d 7edd 0bbe 67fb d33d 8357 80bd
000001b0: 86d1 a33d 7706 3fbd 29de 423d aa65 4bbe
000001c0: 4ead d13d dd27 4c3e e8b7 533e bbd2 37be
000001d0: 705a 48bd 21b9 93bb d875 1a3e 2a4a 10bd
000001e0: ff8f ab3d 9b6a ecbd 11ee 4bbe 464c 0c3e
000001f0: e52f 16be a96a e0bc f008 563e d71a 0e3d
00000200: 2267 2bbe ac99 533e 41c7 683d b954 4bbe
00000210: 6eaf 6b3d 820a ff3d e6e1 2a3d b425 e43d
00000220: cdd3 b3bd ff7b 7abd 54ae cc3d 56a6 c5bd
00000230: a66a 21be 9ad9 ed3d ec96 3bbd 1d7e 003e
00000240: 832f 18be f328 74bd 460f 0f3e 7bff e13d
00000250: 8905 c33c 596e 7fbd 4773 1d3d 8c3e e9bb
00000260: e0fa 453e 3b30 423e 370b 76bd 94ab 3fbe
00000270: 3799 89bd d41a 433e 5e4c c63c 145a 2fbe
00000280: 8b62 94bc c0cc 39be 41d5 88be f241 38be
00000290: 2a14 4dbe 82f1 42be d2f0 a73c a08b 503e
000002a0: 5e08 cbbd 936a 5c3e 5228 183c e746 e03d
000002b0: 8c90 2a3d bf8f 02be 8c38 763d 1458 353e
000002c0: 892b 17be 3a07 2fbb 715a 453e cb63 4e3e
000002d0: 0449 1e3d ec7a 10bd 4fdd 68be c1ec 23bb
000002e0: 2a8d 5abe a8fb 953d 6a95 4b3e dc41 463d
000002f0: b677 163e fe39 cc3d 33b0 89bd 7436 9d3d
00000300: c02b e83d 71fd 80be 3a82 51be 7356 393d
00000310: 1fcf 41bc 51b3 2cbe 7894 e3bd 3638 4fbe
00000320: 0f0b 4ebc a8b5 5e3d 95eb 99bd 29b7 62be
00000330: 5a8e 47be b922 01bd 1d72 503e de02 6c3e
00000340: e6a3 0b3d d287 54bd c026 213e 6bda 43be
00000350: c238 3fbe 39c2 dabc 19d2 473e 0dc6 59bd
00000360: 861c 403e f3bf 853d bd18 803d a8b5 c3ba
00000370: 91ce 2e3e 4bbc 7ebe d7f3 00be e0fb f4bc
00000380: c8f6 7b3e a92a ac3d 2d46 53be 49ed 953c
00000390: 0a26 b2bd d0fa e1bd dcbb 24be 55c7 303c
000003a0: fa9c 07be 2414 3a3e 8ddf 023e ab00 3e3e
000003b0: 543c e1bd 83f6 c43d f4f0 303e a28a 62be
000003c0: 086e acbd 7892 7d3e 8af3 33be 84ef c7bd
000003d0: 4cd1 0d3e e279 21be 8d94 903d c0fa e1bc
000003e0: 46d9 393c a8b3 43be d114 053e 98c0 583e
000003f0: 816c 523e d40f cfbc 2990 debd d26d 793e

layers.2.weight f4 [256, 512]
-0.0021865685 -0.0010886008 0.021514809 0.005406924 -0.0032206273 -0.042507697 0.022900999 -0.018926293
0.027988795 0.00017125938 -0.0468471 0.025808424 -0.014669008 -0.03943415 0.014495343 0.03541186
-0.0009320012 0.020941334 0.033424333 0.035086673 -0.047891393 -0.0046344292 0.01278699 0.014864638
0.027996799 0.012030084 0.022109125 -0.045590766 -0.021962514 -0.033435386 -0.005167783 0.03885089
-0.025052523 0.03397663 -0.028810894 -0.01691501 0.029148193 -0.0071391924 -0.042069312 -0.0175757
-0.047432777 -0.036130495 -0.038143955 -0.042291787 0.021916857 -0.030543098 -0.00011523578 -0.026273519
0.017243126 -0.033654783 0.0003115512 -0.008002004 0.0013798885 0.021150088 -0.026951084 -0.019556517
-0.0012886183 -0.027334541 -6.762249e-05 -0.013339358 -0.019008184 0.036347013 0.016888775 -0.021364331
0.0073660375 0.032419305 -0.0058590565 -0.022307599 0.039449845 0.0416173 -0.004021633 0.0045802733
0.025086 0.00652299 -0.0017757047 0.0050425017 0.0013190956 0.00019011182 0.027735174 -0.026773162
-0.04090469 0.014193872 -0.019298226 -0.03897346 0.014922114 0.026612032 -0.034862626 0.03252525
-0.04909082 -0.034267683 -0.035237562 -0.039513703 -0.027449103 0.025629207 0.02570263 0.013626804
0.025141641 0.021405725 -0.021815903 -0.044770405 0.015886253 -0.05025711 0.025196332 -0.0037872184
0.0011427182 0.012237761 -0.012108858 -0.03079438 -0.016651168 0.00656977 0.035967465 0.0010503967
0.007985343 0.007839938 0.029452233 0.024781795 -0.028316397 0.032669846 -0.014120428 -0.042358402
-0.021978823 0.024564795 0.04035577 -0.00950974 -0.0028064947 -0.044664793 0.026024578 -0.02827167
0.03162731 -0.04357393 -0.00897169 0.027639193 0.0034295951 0.0010390087 -0.039649375 -0.009653
0.014835373 -0.023690345 0.018680915 0.019162169 -0.025279624 0.024639048 0.0053748526 0.03129606
-0.042926878 -0.008873334 -0.035283715 -0.01635227 0.03723317 -0.015403217 -0.013704008 -0.02354224
0.031215336 -0.009369616 -0.011423901 -0.019587185 0.032610383 -0.017874867 0.016254209 -0.0060694944
-0.001982612 0.016908107 -0.004736747 -0.0007072332 0.019021459 -0.025083173 -0.041469887 -0.049685612
-0.027085312 0.017521108 0.029539298 -0.000734682 -0.010239459 0.027645526 -0.0038025293 0.027300935
-0.025651153 0.016261583 -0.036085844 -0.05129877 -0.023886058 -0.027029358 -0.048068143 0.03610991
-0.042024534 -0.04213972 0.020195903 -0.037593435 0.013285559 0.018741665 -0.010963696 -0.031926807
0.03473029 -0.03806408 0.010729523 0.024387563 -0.021689227 0.00435777 0.00079159223 0.0370644
0.027385876 0.022038262 0.02675387 -0.037141416 0.020755379 0.035339244 -0.022783604 -0.0058831195
0.034738213 -0.035387848 -0.02816406 0.014180002 0.025243072 0.011659391 0.009845104 -0.0020513046
-0.006405745 -0.02306007 -0.021915155 0.026652047 -0.025440317 -0.0031460735 0.0012199961 -0.040978115
0.012148472 0.012437017 -0.0048666354 0.019663665 -0.0011217322 -0.005301367 0.03635791 -0.022116723
-0.02877097 0.032042254 -0.023030484 0.03324296 0.02983814 -0.039116733 -0.0052860538 -0.005785389
-0.04909621 -0.046614837 0.026477464 -0.023156034 -0.01581531 -0.0015971353 0.020931138 0.010887983
-0.03751299 -0.03070542 0.0031769755 0.02017474 -0.033491634 -0.008712538 0.0070639206 0.0058482657
00000000: 884c 0fbb 62af 8eba d33f b03c 912c b13b
00000010: 2911 53bb 8d1c 2ebd e09a bb3c 500b 9bbc
00000020: c248 e53c 1794 3339 bfe2 3fbd 306c d33c
00000030: 4756 70bc b485 21bd e07d 6d3c 070c 113d
00000040: 8b51 74ba 298d ab3c f4e7 083d 0bb7 0f3d
00000050: c429 44bd 69dc 97bb 8680 513c d08a 733c
00000060: 8b59 e53c d419 453c 321e b53c 62bd 3abd
00000070: bbea b3bc 8bf3 08bd 8156 a9bb 1c22 1f3d
00000080: f33a cdbc 142b 0b3d d304 ecbc 5991 8abc
00000090: 31c8 ee3c e3ef e9bb df50 2cbd eafa 8fbc
000000a0: df48 42bd 92fd 13bd d63c 1cbd 273a 2dbd
000000b0: fb8a b33c 8535 fabc bdaa f1b8 903b d7bc
000000c0: 7541 8d3c 99d9 09bd b257 a339 d61a 03bc
000000d0: 60dd b43a f342 ad3c 85c8 dcbc fd34 a0bc
000000e0: dbe6 a8ba b0ec dfbc 8cd0 8db8 538d 5abc
000000f0: 0db7 9bbc 9be0 143d 545a 8a3c 4004 afbc
00000100: cd5e f13b 1bca 043d 54fd bfbb 6dbe b6bc
00000110: 2996 213d e776 2a3d e7c7 83bb 1e16 963b
00000120: 2881 cd3c cebe d53b c3be e8ba 923b a53b
00000130: 81e5 ac3a c158 4739 e034 e33c 6453 dbbc
00000140: ad8b 27bd 6a8d 683c 5017 9ebc a3a2 1fbd
00000150: e27b 743c 7a01 da3c 1dcc 0ebd 3239 053d
00000160: 7513 49bd 455c 0cbd 4355 10bd 1fd9 21bd
00000170: f1dc e0bc 58f4 d13c 528e d23c f542 5f3c
00000180: d8f5 cd3c 0f5b af3c 44b7 b2bc 2c61 37bd
00000190: e323 823c 66da 4dbd 8a68 ce3c fb32 78bb
000001a0: 43c7 953a e480 483c 3b64 46bc 7f44 fcbc
000001b0: 0868 88bc 3a47 d73b 9f52 133d 77ad 893a
000001c0: f5d4 023c 1573 003c cf45 f13c 3103 cb3c
000001d0: caf7 e7bc d1d0 053d 5e59 67bc 0180 2dbd
000001e0: ef0c b4bc 1c3c c93c 184c 253d bece 1bbc
000001f0: 2bed 37bb 6ef2 36bd 7f31 d53c fd99 e7bc
00000200: a38b 013d 947a 32bd fffd 12bc 976b e23c
00000210: 0fc3 603b 592f 883a 6267 22bd 9e27 1ebc
00000220: 1010 733c 4112 c2bc b808 993c fbf9 9c3c
00000230: 3717 cfbc d4d7 c93c 881f b03b 4c30 003d
00000240: 18d4 2fbd 7661 11bc a885 10bd 32f5 85bc
00000250: cf81 183d c65d 7cbc c786 60bc a8db c0bc
00000260: 4eb7 ff3c 0583 19bc 502b 3bbc 4e75 a0bc
00000270: 7792 053d 506e 92bc 8c27 853c 9ce2 c6bb
00000280: b6ee 01bb df82 8a3c b736 9bbb 9e65 39ba
00000290: e4d2 9b3c 3a7b cdbc 54dc 29bd 2483 4bbd
000002a0: 04e2 ddbc 6d88 8f3c 66fc f13c ad97 40ba
000002b0: 67c3 27bc df78 e23c db33 79bb 36a6 df3c
000002c0: 5e22 d2bc 0337 853c c0ce 13bd a91e 52bd
000002d0: b2ac c3bc ac6c ddbc 1ae3 44bd fce7 133d
000002e0: eb21 2cbd b39a 2cbd e171 a53c 93fb 19bd
000002f0: acab 593c 1f88 993c 13a1 33bc afc5 02bd
00000300: 5941 0e3d 15e9 1bbd e2ca 2f3c 6dc8 c73c
00000310: 9bad b1bc a0cb 8e3b db82 4f3a d7d0 173d
00000320: 5858 e03c 9689 b43c ef2a db3c 9921 18bd
00000330: 2f07 aa3c e2bf 103d aea4 babc 2fc7 c0bb
00000340: a849 0e3d d9f2 10bd 51b8 e6bc 3d53 683c
00000350: 8fca ce3c 0807 3f3c 5c4d 213c 2e6f 06bb
00000360: 49e7 d1bb 79e8 bcbc 6987 b3bc 6555 da3c
00000370: 3668 d0bc 5b2e 4ebb 47e8 9f3a abd8 27bd
00000380: 620a 473c a1c4 4b3c 4c78 9fbb b215 a13c
00000390: 1607 93ba 17b7 adbb 08ec 143d 212e b5bc
000003a0: 19b1 ebbc bd3e 033d 6daa bcbc c529 083d
000003b0: 1d6f f43c de38 20bd a236 adbb 5c93 bdbb
000003c0: 1c19 49bd 33ef 3ebd 44e7 d83c b9b1 bdbc
000003d0: 1c8f 81bc f856 d1ba c777 ab3c 8363 323c
000003e0: 39a7 19bd ef89 fbbc ce34 503b 7f45 a53c
000003f0: 862e 09bd 08bf 0ebc 7678 e73b cfa2 bf3b

layers.2.bias f4 [256]
-0.016477555 -0.03166925 -0.037910953 0.008931451 -0.04278575 -0.038125094 0.018988607 0.03405221
0.013299749 0.01022172 -0.041207913 -0.004832232 -0.04205758 0.029960416 0.010351178 0.030334815
-0.027164767 0.015885388 0.03149456 -0.018135458 0.023862643 0.0052524228 -0.017215552 0.008969068
0.04146071 0.017706702 -0.042915042 0.042818494 0.00896264 0.015193804 0.00091957743 -0.009935499
-0.03722178 -0.022574909 0.017201975 0.031634696 -0.022587921 -0.021525668 -0.012227607 0.028471302
-0.034840867 -0.042364985 -0.038114376 0.04193615 0.021598373 -0.047018215 -0.028334549 -0.0013951719
-0.010555759 0.03341145 -0.028450323 0.041604366 0.021695886 0.021357337 0.0058862595 0.017973768
-0.0120642865 0.025293611 0.011129779 -0.024739956 -0.048835807 -0.021941934 -0.02334121 -0.02831885
0.024727412 0.0060253064 -0.028641246 -0.019035982 -0.0083806 0.004871123 -0.007809058 -0.013101359
0.0010072314 -0.022081897 0.029578688 -0.016373763 -0.013227114 -0.032531597 -0.03609377 -0.03645398
0.04425709 -0.034389615 -0.046953063 0.0068229255 -0.025431825 0.0014136017 -0.022326091 -0.032560814
-0.0021830972 0.016690036 0.024940522 -0.012403977 0.010621564 -0.035146955 0.03216502 0.042462956
0.036820337 0.040003207 0.031836655 0.026331624 -0.035433397 -0.04328707 -0.019487832 -0.043570362
0.032298263 0.033877112 0.006948531 0.02875991 0.030979708 0.030628545 0.031652305 -0.03165487
-0.039520122 -0.043499272 0.036760833 0.028903157 -0.0068063405 -0.03720572 -0.038481392 0.018414171
-0.0025296137 0.039602835 -0.02381696 -0.0017768495 -0.012732636 -0.012010631 0.016365297 -0.028245395
0.0075736805 -0.018581282 -0.00034702293 -0.04291377 0.020578569 0.010854261 0.0147914635 -0.030959584
-0.026241174 -0.005138959 0.0018105034 0.015511597 -0.019362906 0.02488229 0.02624089 0.021146577
-0.005858869 0.035144337 -0.014377219 -0.020366022 -0.015906932 0.018394737 -0.02999099 0.03430644
-0.019191999 0.041250177 0.0070826504 -0.009008306 0.010720651 -0.047636356 -0.0016202673 0.025116745
-0.04172804 -0.007267551 -0.033153962 0.037036035 -0.022226082 -0.007560524 -0.00070689234 0.023267163
0.033725336 -0.043847617 -0.046357036 -0.05086481 0.022113409 -0.016266512 -0.024624122 -0.00072566874
-0.028599905 -0.014979781 0.014046622 -0.022081338 0.0068188612 -0.033612374 0.0021935669 -0.024191933
-0.01276877 0.0334148 -0.020887418 -0.009077376 0.030130241 -0.021919249 -0.008465406 -0.03023184
0.013767976 -0.014588409 -0.028000323 0.032531552 0.018809926 -0.01336092 -0.03271307 0.033628415
-0.0026391447 0.017981922 0.025686143 -0.03395628 0.043423507 0.01425446 0.025793822 -0.009904886
0.037310388 0.02212583 0.0166199 -0.0065528317 0.00078371144 0.0009074439 -0.04105579 0.015408583
0.030842992 -0.03464378 0.029198024 -0.04672999 0.00945431 -0.042994678 -0.032507237 -0.035980985
0.0039416365 0.035051193 -0.04038634 -0.018360265 -0.026793547 0.026880896 -0.041650385 -0.024509737
0.015316069 0.040297713 0.0049986797 -0.011442436 0.038176317 -0.0116685005 -0.0037411146 -0.018403474
-0.04193505 0.006070797 -0.0375817 -0.018747123 -0.00017135384 0.0359239 -0.015533774 0.00034160182
-0.029071905 -0.04231152 -0.023645902 0.0340678 -0.01645 -0.03973642 -0.034104384 -0.034462888
00000000: f0fb 86bc 9eb7 01bd 8448 1bbd 3855 123c
00000010: 1c40 2fbd 0f29 1cbd ff8d 9b3c 557a 0b3d
00000020: 31e7 593c 0079 273c a1c9 28bd b357 9ebb
00000030: 9244 2cbd 8c6f f53c fd97 293c b880 f83c
00000040: a588 debc 1322 823c 7100 013d d090 94bc
00000050: 977b c33c 841c ac3b a107 8dbc fff2 123c
00000060: b5d2 293d a50d 913c afc7 2fbd 7262 2f3d
00000070: 09d8 123c 6fef 783c cc0f 713a 81c8 22bc
00000080: dd75 18bd 04ef b8bc 28eb 8c3c 6293 013d
00000090: 4e0a b9bc 9956 b0bc 4d56 48bc a63c e93c
000000a0: 4cb5 0ebd e886 2dbd d21d 1cbd 3ec5 2b3d
000000b0: 12ef b03c 2c96 40bd db1d e8bc 33de b6ba
000000c0: 10f2 2cbc 72da 083d a710 e9bc 5769 2a3d
000000d0: 92bb b13c 95f5 ae3c 86e1 c03b b93d 933c
000000e0: 49a9 45bc 8c34 cf3c ad59 363c 73ab cabc
000000f0: 0e08 48bd 92bf b3bc 1136 bfbc effc e7bc
00000100: 2491 ca3c ef6f c53b 0ca1 eabc 59f1 9bbc
00000110: c94e 09bc f19d 9f3b 20e3 ffbb 15a7 56bc
00000120: 1405 843a 18e5 b4bc 014f f23c 4522 86bc
00000130: 8ab6 58bc da3f 05bd 10d7 13bd c550 15bd
00000140: ec46 353d 20dc 0cbd db51 40bd d992 df3b
00000150: 6756 d0bc 9a48 b93a 35e5 b6bc 7d5e 05bd
00000160: 4b12 0fbb 8bb9 883c 1150 cc3c 0d3a 4bbc
00000170: 1206 2e3c 41f6 0fbd 78bf 033d a3ed 2d3d
00000180: ecd0 163d 67da 233d 2767 023d 6bb5 d73c
00000190: 9c22 11bd c84d 31bd f2a4 9fbc d676 32bd
000001a0: 2f4b 043d bac2 0a3d 81b0 e33b e799 eb3c
000001b0: 28c9 fd3c b7e8 fa3c d9a5 013d 89a8 01bd
000001c0: dadf 21bd 4b2c 32bd 8792 163d 50c6 ec3c
000001d0: b907 dfbb 0665 18bd aa9e 1dbd 51d9 963c
000001e0: e0c7 25bb 9536 223d c91b c3bc 2de5 e8ba
000001f0: 8c9c 50bc 3dc8 44bc 8410 863c e362 e7bc
00000200: a32c f83b c637 98bc a1f0 b5b9 59c6 2fbd
00000210: 6394 a83c 12d6 313c e557 723c f49e fdbc
00000220: bbf7 d6bc b664 a8bb 6a4e ed3a 5a24 7e3c
00000230: f59e 9ebc f2d5 cb3c 23f7 d63c 963b ad3c
00000240: c1fb bfbb 82f3 0f3d 6d8e 6bbc a5d6 a6bc
00000250: 414f 82bc 8fb0 963c aaaf f5bc e984 0c3d
00000260: 8a38 9dbc f2f5 283d 9415 e83b 9397 13bc
00000270: aba5 2f3c 571e 43bd 265f d4ba a2c1 cd3c
00000280: 05eb 2abd a324 eebb 73cc 07bd 19b3 173d
00000290: 7913 b6bc 46be f7bb be4e 39ba c79a be3c
000002a0: 9423 0a3d 8f99 33bd e0e0 3dbd 9e57 50bd
000002b0: 2e27 b53c 5941 85bc 87b8 c9bc ce3a 3eba
000002c0: 594a eabc c16d 75bc ce23 663c ece3 b4bc
000002d0: c170 df3b 21ad 09bd f2c1 0f3b 292e c6bc
000002e0: 1a34 51bc f5dd 083d 171c abbc 46b9 14bc
000002f0: b2d3 f63c ff8f b3bc 7cb2 0abc c4a8 f7bc
00000300: 1493 613c 3904 6fbc ef60 e5bc ce3f 053d
00000310: 4617 9a3c c3e7 5abc 24fe 05bd f3bd 093d
00000320: 80f5 2cbb d34e 933c bf6b d23c be15 0bbd
00000330: d9dc 313d 8a8b 693c 914d d33c 1a48 22bc
00000340: c7d2 183d 3b41 b53c 7526 883c 23b9 d6bb
00000350: fc71 4d3a 87e1 6d3a 1e2a 28bd 4874 7c3c
00000360: 71aa fc3c a3e6 0dbd b230 ef3c f267 3fbd
00000370: 40e6 1a3c 301b 30bd 4f26 05bd cc60 13bd
00000380: d828 813b d791 0f3d 266c 25bd 4468 96bc
00000390: 247e dbbc 5335 dc3c 9899 2abd a5c8 c8bc
000003a0: 40f0 7a3c 370f 253d f7cb a33b 0e79 3bbc
000003b0: c55e 1c3d 3d2d 3fbc 7d2d 75bb e2c2 96bc
000003c0: 16c4 2bbd 89ed c63b 45ef 19bd 9193 99bc
000003d0: 72ad 33b9 f024 133d 5f81 7ebc 0519 b339
000003e0: 3428 eebc d84e 2dbd 0db5 c1bc ad8a 0b3d
000003f0: 27c2 86bc a8c2 22bd 0ab1 0bbd f528 0dbd

layers.4.weight f4 [128, 256]
-0.049454406 0.024536155 -0.051151797 -0.0123386625 0.047185265 0.04066127 0.04636562 -0.020265697
0.01917611 -0.04897341 0.011299726 0.00021023338 0.02338985 -0.05545468 -0.011594566 0.03557452
0.013956696 -0.01999713 0.033118237 -0.016985174 0.012847483 0.04402733 0.008528067 -0.058020294
0.00037169756 0.022595283 -0.017544981 -0.05141038 -0.010184632 0.035006385 0.011558689 0.0034252447
0.029278697 0.03253077 -0.0019042899 -0.012662012 0.010400433 -0.03141167 -0.016116405 -0.011446448
-0.0067127664 0.0014309628 -0.0010796897 -0.0071309814 0.029671136 0.045236826 -0.014688124 0.053687774
0.031174742 0.018877933 0.046508726 0.020846257 0.019506657 -0.025127716 -0.019104382 -0.029603055
0.0032659653 0.008760862 -0.013241446 -0.039002784 0.0018424799 0.013733614 0.041639842 0.05059864
-0.054450512 -0.029010868 -0.004452002 -0.033171196 0.05212075 -0.05576145 -0.0076990025 -0.06034825
-0.021701327 -0.066054076 0.049293935 -0.06495011 0.025282117 0.038537342 0.021857344 0.020801403
0.0060665715 -0.02922289 -0.022424968 -0.012714846 0.035198975 0.046863228 -0.010885267 -0.019129647
0.039340362 0.00012112575 -0.0155773405 0.04277219 0.011344162 -0.06198123 -0.026246367 -0.009567522
0.046066552 0.043628763 -0.055247284 -0.06560623 -0.031835325 -0.00424668 0.01958058 -0.017057667
0.048441198 0.008827817 0.013684955 0.029844908 -0.0138247525 0.013923319 -0.025111768 -0.067887336
-0.031077208 0.018741414 -0.01931779 0.04586353 -0.0104545485 0.048926007 -0.025163716 -0.06539885
0.018267477 0.024737978 -0.06463753 0.048900396 -0.05234146 0.045577765 0.018152159 -0.047169134
0.00683757 0.010839205 -0.06251996 0.04270436 -0.027427958 -0.029765064 -0.019968638 0.015439447
-0.0096443165 -0.05803323 0.009517002 -0.002294763 0.044159614 0.041551694 0.010587222 -0.010200162
-0.03289758 -0.05495286 0.0070669767 0.013101597 -0.052326694 0.024720233 0.052090336 -0.06428477
-0.068071544 -0.07086014 -0.0038892273 -0.04493661 -0.016472694 0.010705064 0.007457377 0.04231302
0.048995595 -0.04911907 -0.005634981 -0.01080052 -0.0397758 -0.030428464 0.028884886 -0.06939348
-0.011910085 0.0233717 0.05517626 -0.049714375 0.03621002 -0.010201796 0.049394395 -0.06624753
-0.00795832 0.009879391 -0.037761863 0.0105597675 0.025181115 -0.056613423 -0.048198704 -0.05772872
-0.06191616 -0.04373674 -0.066877365 -0.023459239 0.04754789 0.02632859 0.036021203 -0.052889533
-0.047005225 -0.07019479 0.029862002 -0.053267285 -0.00098316 -0.033521798 0.021256126 -0.039328758
-0.014787709 -0.035412095 -0.006660807 0.044926133 -0.046896014 0.03445506 -0.0021745123 -0.009913616
0.02417403 -0.040512994 -0.02171969 -0.06873879 -0.03709415 -0.028386096 0.025858473 0.011262289
-0.053677693 -0.039023407 0.036045615 0.031077554 -0.012594919 0.04890472 -0.053704556 -0.060866486
0.043392174 0.020809036 -0.048273124 -0.0022981702 0.017509416 0.019934895 0.04499403 -0.03517698
0.02818268 -0.00915661 -0.027737774 0.039324466 -0.05638224 -0.055286396 -0.043888066 -0.0552359
-0.04498888 -0.029628767 -0.04773196 -0.01640968 0.039334673 0.029398143 -0.011891864 0.00045991666
0.0041785324 -0.0039964826 -0.012990322 0.044843603 0.00407089 0.02392042 0.043706566 0.043428577
00000000: b490 4abd 0c00 c93c 8c84 51bd 1a28 4abc
00000010: 5645 413d 6f8c 263d e0e9 3d3d 3f04 a6bc
00000020: 3817 9d3c 5898 48bd 7c22 393c 1872 5c39
00000030: 129c bf3c 7224 63bd 22f7 3dbc 96b6 113d
00000040: a0aa 643c 05d1 a3bc fda6 073d 7e24 8bbc
00000050: 407e 523c 0056 343d 4eb9 0b3c b0a6 6dbd
00000060: 67e0 c239 be19 b93c 7eba 8fbc b193 52bd
00000070: 71dd 26bc db62 0f3d a860 3d3c 127a 603b
00000080: e1d9 ef3c fc3e 053d 5e99 f9ba 5474 4fbc
00000090: 9466 2a3c 86a9 00bd 8d06 84bc e289 3bbc
000000a0: c4f6 dbbb 258f bb3a 6084 8dba 02ab e9bb
000000b0: e210 f33c 404a 393d 75a6 70bc b6e7 5b3d
000000c0: 2c62 ff3c e5a5 9a3c ef7f 3e3d c5c5 aa3c
000000d0: 6dcc 9f3c a4d8 cdbc cb80 9cbc 1b82 f2bc
000000e0: ce09 563b b889 0f3c a6f2 58bc 62c1 1fbd
000000f0: 5e7f f13a f402 613c 8a8e 2a3d 8540 4f3d
00000100: 8007 5fbd 33a8 edbc 19e2 91bb 85de 07bd
00000110: 917c 553d 1e66 64bd ea47 fcbb ba2f 77bd
00000120: fbc6 b1bc 5c47 87bd 70e8 493d 9004 85bd
00000130: 711c cf3c 55d9 1d3d 2c0e b33c b467 aa3c
00000140: 17ca c63b d864 efbc 91b4 b7bc ee51 50bc
00000150: cd2c 103d a8f3 3f3d 1e58 32bc c7b5 9cbc
00000160: 5c23 213d e404 fe38 1a38 7fbc e431 2f3d
00000170: dddc 393c 08e0 7dbd 9f02 d7bc 19c1 1cbc
00000180: 48b0 3c3d 13b4 323d fa4a 62bd 8f5c 86bd
00000190: c265 02bd bc27 8bbb 7467 a03c 85bc 8bbc
000001a0: 476a 463d 8ca2 103c dd36 603c 4f7d f43c
000001b0: 3781 62bc a21e 643c 32b7 cdbc 8408 8bbd
000001c0: a195 febc 9887 993c 5840 9ebc 66db 3b3d
000001d0: 8e49 2bbc a366 483d 2324 cebc d5ef 85bd
000001e0: ada5 953c 4da7 ca3c ae60 84bd c84b 483d
000001f0: 0064 56bd c0af 3a3d d6b3 943c 6c34 41bd
00000200: b20d e03b ec96 313c 770a 80bd c4ea 2e3d
00000210: 99b0 e0bc ddd5 f3bc 4595 a3bc bcf5 7c3c
00000220: 3203 1ebc 41b4 6dbd 33ed 1b3c bc63 16bb
00000230: b6e0 343d 1c32 2a3d 0776 2d3c 951e 27bc
00000240: 9dbf 06bd 4016 61bd 1992 e73b 15a8 563c
00000250: 8454 56bd 1682 ca3c ad5c 553d bca7 83bd
00000260: 1869 8bbd 1f1f 91bd 68e2 7ebb 730f 38bd
00000270: bef1 86bc 4b64 2f3c 035d f43b 6b50 2d3d
00000280: 9baf 483d 1431 49bd a6a5 b8bb aaf4 30bc
00000290: f3eb 22bd 1d45 f9bc ff9f ec3c 2b1e 8ebd
000002a0: 8422 43bc 0276 bf3c 8100 623d 4da1 4bbd
000002b0: f550 143d 6f25 27bc c751 4a3d c9ac 87bd
000002c0: 9d63 02bc 2bdd 213c 2fac 1abd e002 2d3c
000002d0: a048 ce3c 7ae3 67bd 016c 45bd f374 6cbd
000002e0: cd9b 7dbd 4c25 33bd 00f7 88bd 972d c0bc
000002f0: 94c1 423d 0eaf d73c f88a 133d b2a2 58bd
00000300: 8d88 40bd 49c2 8fbd 28a1 f43c cc2e 5abd
00000310: 60dd 80ba 274e 09bd 5421 ae3c 3117 21bd
00000320: 2648 72bc 460c 11bd e642 dabb 7704 383d
00000330: 0916 40bd c020 0d3d 4382 0ebb b86c 22bc
00000340: 9e08 c63c f4f0 25bd 7eed b1bc ecc6 8cbd
00000350: 09f0 17bd f589 e8bc 26d5 d33c 7785 383c
00000360: 24dd 5bbd 02d7 1fbd 91a4 133d 5b96 fe3c
00000370: eb5a 4ebc 5150 483d 4ff9 5bbd 234f 79bd
00000380: febb 313d b677 aa3c 0aba 45bd e69c 16bb
00000390: e86f 8f3c 814e a33c a94b 383d bd15 10bd
000003a0: 5ddf e63c 9b05 16bc 543a e3bc b112 213d
000003b0: 10f1 66bd fd73 62bd f9c3 33bd 0a3f 62bd
000003c0: 4346 38bd 07b8 f2bc 9682 43bd 986d 86bc
000003d0: 651d 213d 60d4 f03c 18d6 42bc f820 f139
000003e0: 12ec 883b edf4 82bb 5cd5 54bc edad 373d
000003f0: 1a65 853b c2f4 c33c a805 333d 2ae2 313d

layers.4.bias f4 [128]
-0.049830128 0.034617953 0.02928612 0.1769851 0.06588968 0.05071851 0.03626627 -0.050590664
0.03284694 0.020391537 0.008507145 0.06712534 0.058239445 0.020052738 -0.056217562 -0.02541655
0.017638236 0.053725354 0.058201242 0.020146115 -0.062472228 0.009752171 0.03948482 -0.025275784
0.016579414 0.053145774 -0.018322058 0.028147608 0.034148823 -0.01391531 0.055049356 0.019153584
-0.0320836 -0.025221024 -0.009188787 0.044702627 -0.01685034 0.03063642 -0.056366112 -0.011488669
-0.044277206 0.023874687 -0.020814953 0.030756926 -0.060026757 -0.013052999 0.020627566 -0.02720049
0.027381187 0.0049549504 0.0090477755 0.06829055 -0.03198914 0.03266215 0.053628948 0.00888524
-0.009587419 0.056790885 -0.04370624 0.024719857 0.05504704 -0.03838054 -0.051824283 -0.025465941
-0.05433974 -0.031585693 -0.058862485 0.03145209 -0.062470634 -0.0079743285 -0.03999333 0.049211048
0.051423777 -0.0406366 -0.009683235 -0.052219678 0.030345514 -0.007596563 -0.05086171 0.064923584
-0.011304931 -0.07322913 0.11089248 -0.005072065 0.024828598 -0.034379568 -0.0033002025 -0.017005075
-0.02379003 -0.016671522 -0.059363313 0.058998168 0.05674658 0.017969618 0.0038714374 0.05037786
-0.017879533 0.05375295 0.036221 -0.020761063 0.009572001 0.08035678 -0.026886052 0.0072997706
-0.03598695 -0.02369859 0.022415344 0.05032723 -0.014719256 0.033130538 0.005835714 -0.027775422
-0.075468704 0.05895043 0.021595493 0.010449778 -0.026063005 0.045780946 -0.03595242 0.05401772
-0.00708381 0.057721604 0.028028365 0.017264055 -0.005711159 0.06346786 -0.039014217 0.03893658
00000000: ad1a 4cbd 8ecb 0d3d 72e9 ef3c 953b 353e
00000010: 2bf1 863d 36be 4f3d f18b 143d 2838 4fbd
00000020: 838a 063d 270c a73c 8d61 0b3c 0379 893d
00000030: 7c8c 6e3d a445 a43c 6344 66bd 5e36 d0bc
00000040: 107e 903c 1e0f 5c3d 6d64 6e3d 7709 a53c
00000050: e1e2 7fbd 92c7 1f3c d6ba 213d 290f cfbc
00000060: 8dd1 873c 62af 593d 2418 96bc d095 e63c
00000070: a3df 0b3d 0afd 63bc 6f7b 613d fae7 9c3c
00000080: 186a 03bd 529c cebc 918c 16bc 1a1a 373d
00000090: b909 8abc 3bf9 fa3c 27e0 66bd f83a 3cbc
000000a0: 045c 35bd d994 c33c 1f84 aabc f3f5 fb3c
000000b0: 9ede 75bd 3fdc 55bc 24fb a83c 90d3 debc
000000c0: 834e e03c 235d a23b 1f3d 143c eadb 8b3d
000000d0: 0b07 03bd bfc8 053d 07aa 5b3d 6693 113c
000000e0: 8d14 1dbc 8f9d 683d 5005 33bd 4c81 ca3c
000000f0: 0179 613d ea34 1dbd b345 54bd f39d d0bc
00000100: 5993 5ebd 0060 01bd ca19 71bd e8d3 003d
00000110: 35e1 7fbd c2a6 02bc 0cd0 23bd 8691 493d
00000120: bda1 523d 9072 26bd 6ea6 1ebc 4de4 55bd
00000130: 2897 f83c 97ec f8bb 5e54 50bd a8f6 843d
00000140: 5138 39bc 27f9 95bd 991b e33d 9133 a6bb
00000150: 5865 cb3c 97d1 0cbd 3648 58bb 3a4e 8bbc
00000160: 4fe3 c2bc b792 88bc f226 73bd 10a8 713d
00000170: 1a6f 683d 0535 933c f1b7 7d3b 0459 4e3d
00000180: 1978 92bc 0e2c 5c3d 795c 143d 1b13 aabc
00000190: e2d3 1c3c 1892 a43d 2340 dcbc ea32 ef3b
000001a0: 0d67 13bd 8c23 c2bc 62a0 b73c ed23 4e3d
000001b0: 0929 71bc e3b3 073d 8439 bf3b 4889 e3bc
000001c0: 568f 9abd 0276 713d 08e9 b03c 8c35 2b3c
000001d0: 1582 d5bc cd84 3b3d d842 13bd af41 5d3d
000001e0: 4e1f e8bb 7d6d 6c3d be9b e53c 596d 8d3c
000001f0: ad24 bbbb 70fb 813d 5fcd 1fbd f77b 1f3d

layers.6.weight f4 [1, 128]
-0.051668927 0.08446759 -0.058625694 -0.15469775 0.03198414 -0.026588697 -0.05130334 0.06688466
-0.077890135 0.04917237 0.037619065 0.0678358 0.037569705 -0.007063847 -0.0017075771 -0.0033092466
0.064957656 0.03951623 -0.0554797 0.00028292602 -0.018459775 0.0685078 0.039234065 0.030716404
-0.051648285 0.077176824 -0.06150099 0.0017898944 -0.07150658 -0.025726533 0.043476146 0.008666785
0.06971181 -0.0239665 -0.014076463 0.061792195 -0.06976899 0.068901405 -0.008727377 -0.07594048
-0.012208278 0.08566043 0.03759732 0.025359767 0.0048698904 0.09007884 0.047504038 0.010299296
0.04497596 0.038991194 -0.04247059 0.07661197 -0.03759074 0.03692094 0.032271203 0.09030654
-0.036893673 0.017729849 0.065708086 -0.05240659 -0.0139124505 0.098213315 0.08214903 -0.03313107
0.00088437827 0.0066546756 -0.029472183 -0.0131902825 -0.004032123 0.0762122 0.015496558 -0.052216377
-0.008467486 0.04393942 -0.005571392 -0.023556527 -0.07836354 -0.0057308357 0.025801284 0.055019338
0.05397795 -0.01128596 -0.15727647 0.06534416 -0.046932153 -0.019574258 0.035990953 0.009632082
0.05501276 0.051996503 -0.027793093 0.0032701956 -0.085833326 -0.028196648 -0.043910343 -0.03996439
-0.05194382 -0.058589153 0.040079474 0.032400515 -0.071131796 -0.106488585 -0.024757281 -0.0023239823
0.03237854 -0.0095203575 0.056219455 0.013937423 0.08112507 0.06860124 -0.01288154 0.023197452
-0.05375582 -0.019026984 -0.061285287 -0.023843385 -0.0006991332 0.0351001 0.048007112 -0.03780284
-0.082714155 0.0699138 0.008331631 -0.00027344565 0.051472075 -0.08108136 -0.056689747 0.0057056677
00000000: cca2 53bd 58fd ac3d 7f21 70bd 1669 1ebe
00000010: cd01 033d 8ad0 d9bc 7323 52bd d3fa 883d
00000020: dd84 9fbd f868 493d 7316 1a3d 7fed 8a3d
00000030: b1e2 193d d877 e7bb c8d0 dfba f2df 58bb
00000040: 8508 853d c5db 213d af3e 63bd b055 9439
00000050: f438 97bc d14d 8c3d e6b3 203d f8a0 fb3c
00000060: 278d 53bd e20e 9e3d 76e8 7bbd e49a ea3a
00000070: 0b72 92bd 73c0 d2bc 0b14 323d 22ff 0d3c
00000080: 11c5 8e3d 6555 c4bc f7a0 66bc d019 7d3d
00000090: 0be3 8ebd 2e1c 8d3d 46fd 0ebc af86 9bbd
000000a0: 3b05 48bc bc6e af3d a6ff 193d 49bf cf3c
000000b0: 9a93 9f3b 417b b83d 9893 423d 61be 283c
000000c0: b638 383d 3bb5 1f3d a4f5 2dbd bde6 9c3d
000000d0: bff8 19bd 693a 173d cf2e 043d a3f2 b83d
000000e0: d21d 17bd 303e 913c f691 863d 4ba8 56bd
000000f0: 0cf1 63bc 1024 c93d c03d a83d 72b4 07bd
00000100: 9fd5 673a 770f da3b a66f f1bc 0e1c 58bc
00000110: e61f 84bb 2415 9c3d 46e5 7d3c d7e0 55bd
00000120: 36bb 0abc d2f9 333d 3990 b6bb 9ef9 c0bc
00000130: 107d a0bd bcc9 bbbb 375d d33c f55b 613d
00000140: fc17 5d3d bfe8 38bc 150d 21be 29d3 853d
00000150: ee3b 40bd 325a a0bc 406b 133d e1cf 1d3c
00000160: 0f55 613d 49fa 543d 57ae e3bc c750 563b
00000170: 62c9 afbd a8fc e6bc 55db 33bd b3b1 23bd
00000180: 0bc3 54bd 2efb 6fbd 602a 243d 67b6 043d
00000190: 8cad 91bd b016 dabd c8cf cabc f44d 18bb
000001a0: 5c9f 043d 46fb 1bbc 5f46 663d ca59 643c
000001b0: e724 a63d cf7e 8c3d 180d 53bc 9508 be3c
000001c0: 102f 5cbd 7ade 9bbc 4806 7bbd 3453 c3bc
000001d0: 0946 37ba 1fc5 0f3d 1ba3 443d 27d7 1abd
000001e0: 0a66 a9bd f72e 8f3d 6581 083c 415d 8fb9
000001f0: 62d4 523d fc0d a6bd 8233 68bd 9cf6 ba3b
