Part2/mlp_eigenvalue_model.pth (torch, 695772 bytes, 7 tensors)

layers.0.weight f4 [512, 16]
000000 6a 2c a9 bd 7f 85 d3 3d 6a bb 4e 3e c2 a6 b4 bd
       -0.082604244 0.10328197 0.2018868 -0.08820869
000010 5b df 76 be cd 91 5a 3e 45 43 e9 bd 77 18 54 3d
       -0.24108641 0.21344681 -0.11389784 0.051781144
000020 20 b9 17 3c c4 a0 84 be 44 22 3c 3d 2b 03 42 3e
       0.009260446 -0.25903904 0.045931116 0.18946521
000030 3e 62 f9 bd 5d fb 00 be 8b 84 0d be 75 16 d4 3b
       -0.12176941 -0.12595887 -0.13820092 0.0064724036
000040 a4 8e 8f bd 95 02 1b bd 30 08 45 3e 94 ea 27 3e
       -0.070096284 -0.03784426 0.19241405 0.16398078
000050 13 e5 1a 3e 34 15 ea bd 3e 9d 49 be 6b 0e b5 3d
       0.15126447 -0.114298254 -0.1968889 0.08840641
000060 5c a2 1b be 8d 7f 80 3d 9c 50 62 be 36 cf 89 3d
       -0.15198654 0.062743284 -0.22101063 0.067289755
000070 84 d2 2d be b4 d6 2a ba 4e 5b 58 3e bc 0f ff bd
       -0.16974837 -0.00065169786 0.2112858 -0.12454173
000080 07 45 be bc 67 19 4a 3c 6c 11 2b 3e ac 0a 57 bd
       -0.023226274 0.012335158 0.16705865 -0.052500412
000090 97 0d e6 bd 13 87 f2 3c a5 29 48 bd c8 e9 7e 3d
       -0.11233061 0.029605424 -0.04886784 0.06223467
0000a0 b9 e5 90 3d 49 c5 ac 3d 73 0c 3c be 4e 07 29 be
       0.07075066 0.08436067 -0.18364124 -0.16506693
0000b0 5a a2 35 be 72 54 97 3e d2 9e e7 3d 83 42 92 3e
       -0.17737713 0.29556614 0.113095894 0.2856637
0000c0 f3 b5 1b bd 65 dc 7c be ee b0 37 3e 84 69 8c bd
       -0.038015317 -0.24693449 0.17938587 -0.06856063
0000d0 a9 cb 1b bd 14 68 c2 3d 16 f0 04 be 92 ee 22 3e
       -0.038036022 0.094925076 -0.1298221 0.1591132
0000e0 42 3a ad 3d ad 40 71 be aa 72 cd 3d 79 70 55 be
       0.084583774 -0.23559828 0.10031636 -0.20843686
0000f0 47 76 f2 bc 10 db 2d 3e b4 28 9f 3d 48 70 ae 3d
       -0.029597415 0.16978097 0.077714354 0.0851751
000100 6d 0d 0c 3e 32 90 2c be aa dc 2b 3e 62 ac 23 be
       0.13676997 -0.16851881 0.16783395 -0.15983728
000110 9c 23 4c 3e 99 90 ca bd a9 67 4e 3e ce 36 14 3e
       0.19935459 -0.09890861 0.2015673 0.14474031
000120 88 0f 4c 3d 20 96 46 3d c9 2f 35 3e 20 61 a0 3d
       0.0498195 0.048483014 0.1769401 0.07831025
000130 3c 10 ee 3d 48 b2 15 be 75 be 17 be 2e 72 c4 3c
       0.1162419 -0.1461879 -0.14818747 0.023980226
000140 f9 6c 76 bc 74 8a 4d 3d b3 65 6a be 1d b9 32 be
       -0.01504063 0.050180867 -0.22890358 -0.17453428
000150 49 d9 4f be 91 28 57 bc c3 aa ba 3d b1 4b b6 3d
       -0.20297731 -0.01313223 0.091146015 0.08901156
000160 e8 b7 37 be 0f 8e 17 3e ac e1 2b 3c 1b 4d ce bb
       -0.17941248 0.14800285 0.010490816 -0.006295813
000170 ff 7e 69 3e 8e 0f 47 be 96 d3 81 be f6 73 59 3e
       0.22802351 -0.19439527 -0.2535674 0.21235642
000180 06 f0 3a be 17 c8 3e be 13 f1 1a 3e b9 40 73 3e
       -0.18255624 -0.18631016 0.15131025 0.23755158
000190 d5 85 77 3d a2 cb a4 bc f6 03 56 3e a5 34 49 3d
       0.060430367 -0.020116631 0.20899948 0.04912247
0001a0 9a bc f8 3d 16 b7 71 3d 52 4b 45 be 0f cb 37 3e
       0.12145348 0.059012495 -0.19267014 0.17948554
0001b0 f0 13 d0 bd 62 4a 52 3e 30 bf f3 3c 26 59 a4 3e
       -0.10160053 0.20536187 0.029754251 0.32099265
0001c0 e3 ea b5 3d 24 01 e3 3d ab ec 26 3e 9c 1c 94 3d
       0.08882692 0.11084202 0.16301219 0.07232019
0001d0 88 47 0f be bf b5 03 3e 04 39 79 bd f9 5e 31 be
       -0.13992131 0.128623 -0.06084539 -0.17321385
0001e0 5d dc 41 3d bf ff a2 3d e8 d9 d6 bd 58 f0 37 bc
       0.047329295 0.07958936 -0.10490781 -0.011226736
0001f0 9d a0 3f 3e 64 7b 81 be 95 26 95 3c 57 6d 6e bc
       0.18713613 -0.25289452 0.018206874 -0.014552436
000200 3f bc 3a bd 80 c0 82 be 9f 2f 63 be a6 2e 0f 3e
       -0.04558968 -0.2553749 -0.22186135 0.13982639
000210 d6 30 57 3d 4e 3c 53 be 8b 8d ba bc f3 1e 62 3b
       0.052536808 -0.20628473 -0.022772571 0.003450331
000220 55 a0 2a 3e 4b b9 4c be 32 dc ed bd 85 76 53 3d
       0.16662724 -0.19992559 -0.116142645 0.0516267
000230 85 e8 7a 3e da bf 0b be 50 e0 4e be be 2b 00 3e
       0.24502762 -0.13647404 -0.20202756 0.12516686
000240 a5 2d dd 3d 80 6c 59 bd d1 f0 00 3e 04 6b 96 3e
       0.10799722 -0.05308199 0.12591864 0.2937852
000250 95 04 dd bd a8 c5 e1 bd c3 a8 0a 3e d4 c8 10 bc
       -0.107918896 -0.11024028 0.1354094 -0.008836944
000260 09 36 75 be ad af 56 be c2 05 29 be be 79 44 be
       -0.23946394 -0.20965452 -0.16506103 -0.19187066
000270 a8 aa 3a 3c 7f 2e 9b bd cb 15 d3 bd 25 0a bc 3d
       0.011393227 -0.07577228 -0.10306891 0.091816224
000280 69 49 64 3e a1 bd 53 be 19 49 2a be 65 da 19 be
       0.22293629 -0.20677806 -0.16629447 -0.15024717
000290 bf d1 72 3d c2 e0 3f 3d 64 b5 36 bd cc fa a2 3d
       0.05928206 0.046845205 -0.04460658 0.07957992
0002a0 59 a1 d1 bd 8c e1 8f bd 30 a9 6e 3e 3d 60 7a bb
       -0.10235853 -0.070254415 0.23306727 -0.0038204335
0002b0 7f 91 f0 3d a6 11 9f 3b bd 18 fc bd 31 31 4d be
       0.11746501 0.004854399 -0.12309406 -0.20038296
0002c0 29 3f 9d bd 7f d0 89 bc 9e 2a 41 3c 4d e7 c6 bd
       -0.076780625 -0.016823051 0.011789946 -0.09712086
0002d0 45 18 2b bc 65 81 10 be 34 12 43 be 07 e7 5c 3d
       -0.010442798 -0.1411186 -0.19049913 0.053931262
0002e0 3f ff 9a 3d 84 a9 03 be dc 51 12 3e 86 3a a6 bd
       0.075682156 -0.12857634 0.1428904 -0.08116631
0002f0 17 77 af 3d da be d1 3d 44 05 f5 3d 7a 35 1b 3e
       0.085676365 0.1024148 0.11963895 0.15157118
000300 b6 86 fd bd 70 3e a6 3d 42 19 75 be 84 42 64 3c
       -0.1237921 0.08117378 -0.23935416 0.013931874
000310 43 42 47 3d 2b 8d 76 3d 15 26 12 bc e3 06 2d be
       0.048647176 0.060193222 -0.008920212 -0.16897158
000320 5c f3 71 be f6 a6 17 3e 69 ef 1c 3e 76 60 61 3d
       -0.2362799 0.14809784 0.15325703 0.055023633
000330 84 3e 75 3d 33 9a 4b bc 53 6a 26 3e 05 5f 60 be
       0.059874073 -0.012426901 0.16251497 -0.21911247
000340 72 93 a1 3d 96 b5 70 be 1d 7b 01 3e 3d 86 e9 3d
       0.07889451 -0.2350677 0.1264462 0.11402557
000350 2f 89 11 be e3 fe ee 3b 5b b5 12 bb d9 1b 5b bc
       -0.14212488 0.0072935685 -0.0022385928 -0.013373339
000360 e5 e3 77 3e 3f 0f c3 bb 96 ae de 3c d6 47 a7 bd
       0.24208029 -0.005952745 0.027182858 -0.081679985
000370 f0 1e 6f be 23 74 e8 bc dc 48 47 3d 58 bf 32 3e
       -0.23351645 -0.02837569 0.04865347 0.17455804
000380 f3 49 77 3d d5 d0 22 be 00 ce 26 3e 30 3d 61 3e
       0.060373258 -0.15899976 0.1628952 0.21995997
000390 81 1b 7a 3d be 9f b2 3d 89 c2 6b 3e 79 be 9e bd
       0.061061386 0.08721875 0.23023428 -0.077511735
0003a0 e0 18 ac 3c b5 7c 22 3e 3a 48 1c be db 64 4c be
       0.021007955 0.15867884 -0.15261927 -0.19960348
0003b0 93 41 94 bd f7 01 3f 3e c3 35 13 be 0a b6 85 3e
       -0.0723907 0.18653093 -0.14375977 0.26115447
0003c0 9b 8c 6b 3e d3 46 60 3d d2 98 51 3e 12 10 79 3e
       0.23002855 0.054755043 0.20468453 0.24322537
0003d0 63 0c f2 bc 3c b4 62 be a6 54 27 3e 6c a1 55 be
       -0.029546922 -0.22139066 0.16340885 -0.20862359
0003e0 0c e2 ca 3d fc 9c 4c 3e 6c 8c 68 3e cb 4d a2 3d
       0.09906396 0.1998176 0.22709817 0.07924994
0003f0 9d 51 a7 3d 81 69 e6 3d 6b 33 3e 3d d9 75 10 3d
       0.081698634 0.11250592 0.046435755 0.03526864

layers.0.bias f4 [512]
000000 2d cc 41 be c7 3f 6c be 14 d7 58 be 01 e2 ab bd
       -0.18925543 -0.23071204 -0.21175796 -0.08392716
000010 0e 34 36 3e 7d 2c 0a be 27 fe 6c be 66 37 4e bd
       0.17793295 -0.13493533 -0.23143826 -0.0503458
000020 02 4e 13 bc 91 1f 84 bd 59 4a 0e bd ff c6 23 3d
       -0.0089907665 -0.06451333 -0.034738872 0.0399847
000030 33 fd 4d bd 07 42 49 bd f6 7c 9e 3d 4d 50 da 3b
       -0.050290298 -0.049135234 0.07738678 0.0066624046
000040 ea 55 29 3e a3 27 cf 3d 87 01 93 3d fa cf dd 3b
       0.1653668 0.10114982 0.07178026 0.0067691775
000050 14 41 33 be 23 d8 60 3d ef 02 47 be cd 06 81 3d
       -0.17505294 0.054893624 -0.19434713 0.06300125
000060 21 29 63 3d 83 1e 84 bd d8 0a a0 3d 4b 7c 1a be
       0.055459145 -0.06451132 0.07814568 -0.15086477
000070 7f 51 d6 bd c9 c6 95 3d 0e b8 29 3e b4 11 18 3e
       -0.10464763 0.07313306 0.16574118 0.14850503
000080 51 ff 06 3e 85 9f 43 be f6 09 82 be 75 b1 88 bd
       0.13183333 -0.1910382 -0.25398225 -0.06674472
000090 5b c6 61 3d 2a 05 83 3d de 72 1f 3e 55 47 c9 bd
       0.055120807 0.06397469 0.15571162 -0.09828059
0000a0 28 8a 69 be be fc 89 be db e9 4c 3e 1a c7 dc 3d
       -0.22806609 -0.2695064 0.20011084 0.10780163
0000b0 1b 8f 03 be c4 66 25 3b e7 82 67 3d 3e ba 2b 3e
       -0.12847559 0.0025238255 0.056521323 0.16770265
0000c0 8d 0c 86 be cf 9d eb bd c4 48 00 3e e4 36 a5 bc
       -0.2618145 -0.11504709 0.12527758 -0.020167775
0000d0 5a bb 5e bd ca a6 d2 bd 15 7d 23 bc 96 b7 bb bd
       -0.05437789 -0.10285719 -0.009978552 -0.091658756
0000e0 33 ff 41 3e 6b dd 18 be f1 7f 6b 3e 05 d0 a2 bd
       0.18945007 -0.14928214 0.22998025 -0.07949833
0000f0 c2 10 6a 3e 05 8d bf bd 94 08 bd bc 53 0f b1 bd
       0.22857955 -0.09353069 -0.02307538 -0.08645501
000100 20 a3 39 bd 13 8d 6d 3d 85 1d 22 3e 6d 5b 8f 3c
       -0.045321584 0.057995867 0.15831573 0.01749965
000110 62 37 80 3c ac 8c d9 bd b4 6a 5c 3e c0 fe a8 bd
       0.015651409 -0.10622534 0.21525079 -0.08251715
000120 97 bc 10 be 39 fd e1 3d 18 d4 cc bd ab 42 00 be
       -0.14134441 0.110346265 -0.10001391 -0.12525432
000130 50 3d 3f 3e 19 d4 57 3e ca d2 7e be 8e 49 84 bd
       0.18675733 0.21077003 -0.24885097 -0.06459342
000140 c0 65 20 3e 4c cd 96 3d 87 5d 17 3e 5b 9b 02 3e
       0.15663815 0.07363376 0.14781772 0.12754576
000150 5c 24 6a be 8c 79 4d 3e 89 62 5e 3e 0e 64 e2 3d
       -0.22865433 0.20065898 0.21717276 0.1105424
000160 9a ad 96 be 24 8e b6 bd e0 1b 83 be f6 19 20 3d
       -0.29429322 -0.0891383 -0.25607204 0.03908726
000170 14 e5 32 3e f0 ca 54 3d f8 dc 01 3e e3 74 24 3e
       0.17470199 0.05195135 0.12681949 0.16060214
000180 06 ce 40 bc dc ec 0e bc ff e6 55 3d ee 2f cb bd
       -0.01176787 -0.008723464 0.05222225 -0.09921251
000190 cc cc 4c be ca e6 52 3e 57 ef d9 bc 3e ab 06 3e
       -0.19999999 0.20595852 -0.026603384 0.13151261
0001a0 49 33 a5 3d ee b2 c9 bd 1d 23 5b 3e 60 61 37 3e
       0.080664225 -0.09848581 0.21400113 0.1790824
0001b0 b1 84 42 bc a7 3d 30 3e e8 57 cf bd d9 45 0a 3e
       -0.011872456 0.17211019 -0.10124189 0.13503207
0001c0 4a 71 40 bd 84 49 6c 3e 87 06 2e bc 4a 17 08 be
       -0.04698304 0.23074919 -0.010621673 -0.13290134
0001d0 d1 d4 53 3e 0e 73 0e be d6 79 03 3d bc f4 57 3d
       0.20686652 -0.13911077 0.032098614 0.05272363
0001e0 9c 1d a4 bd 90 c5 16 3e e1 af d9 bd ac 9c 62 3e
       -0.0801346 0.14723802 -0.10629249 0.22130078
0001f0 81 31 d1 bd 10 b4 48 3e c9 3e 2d 3e 55 3e 68 be
       -0.1021452 0.19599938 0.16918482 -0.22680028
000200 34 ef 93 bd e1 b3 54 bd 5b 9b 92 bc 92 d3 1c be
       -0.07223359 -0.05192936 -0.017896345 -0.15315083
000210 44 10 ae 3d 73 62 cd bd c3 63 0b 3c a6 83 9e bd
       0.08499196 -0.10028543 0.008507672 -0.07739954
000220 6c 73 2d be 00 09 44 be b6 af 72 3e 60 9f ee bd
       -0.16938561 -0.19144058 0.23699841 -0.11651492
000230 d9 ca 58 3e 88 11 16 3e 05 02 18 3e 06 fa 89 3d
       0.2117113 0.14655125 0.1484452 0.06737141
000240 9b 98 86 be 9d 35 1a 3d 05 ac a7 bc 44 08 5c be
       -0.26288304 0.037648786 -0.020467767 -0.21487528
000250 85 2e 42 be 8c b2 0b 3e 79 dc 2b 3e e7 c3 2d 3c
       -0.18963058 0.13642329 0.16783322 0.010605789
000260 4c 89 25 3e 0e b2 18 3e a6 d8 c4 bd 85 ac 25 be
       0.16165656 0.14911672 -0.09611635 -0.16179092
000270 e9 92 58 3c 60 7f 28 be 6c 70 1a 3e a1 04 4b 3d
       0.01321862 -0.1645484 0.15081948 0.04956496
000280 f4 99 3b 3e 27 61 48 be 37 a4 4a 3e 33 27 01 be
       0.18320447 -0.1956831 0.19789205 -0.1261261
000290 68 da 1e 3d c3 ef b3 3d e5 fd 43 3e ac 15 a8 bd
       0.038782507 0.08785965 0.19139822 -0.082072586
0002a0 02 f1 48 3e e3 b0 bc bd 89 ce 32 3e 4f 1c 95 bd
       0.19623187 -0.09213426 0.174616 -0.0728079
0002b0 cd 89 71 be 9c 8b 59 3e 42 3e 87 be 8c 51 02 be
       -0.23587723 0.21244663 -0.26414686 -0.1272642
0002c0 73 2a 2c 3e 1d f6 66 3e c2 b0 64 3e 33 f1 28 be
       0.16813068 0.22554822 0.22333053 -0.1649826
0002d0 63 2a 18 3d 70 95 be bd f3 da 4e 3e 31 79 2b 3e
       0.037149798 -0.09305847 0.2020071 0.1674545
0002e0 01 9b 1a 3e fe e4 eb bc 93 41 b6 bd f0 f9 fb bb
       0.15098192 -0.028795715 -0.08899226 -0.007689707
0002f0 6f 79 71 be 39 a2 54 be b7 98 a5 bd b5 38 26 be
       -0.2358148 -0.20765008 -0.08085769 -0.1623257
000300 5b fd e4 bd e2 84 d2 bc 4f f0 dd bc b9 83 ea bd
       -0.11181136 -0.02569813 -0.027092127 -0.11450905
000310 07 57 1e 3e d5 37 19 be 4a 71 72 3e 77 94 22 bd
       0.15462886 -0.14962704 0.23676029 -0.03969237
000320 1c 97 44 be ec 62 94 be 1e 0a 6d 3e f3 ab 60 be
       -0.19198269 -0.2898172 0.2314839 -0.21940593
000330 26 46 0e 3e af fd 1b be 01 4b 25 3e a9 6e 24 3e
       0.13893947 -0.15233491 0.16141893 0.16057838
000340 23 8a 6e 3a c6 d4 aa bd aa 5f 33 3e 4a 7d 79 be
       0.00090995635 -0.083413646 0.17516962 -0.243642
000350 d9 eb 16 bd 88 92 8b be 74 33 57 be cd 20 4e 3e
       -0.036846016 -0.27260232 -0.21015722 0.201297
000360 6c 33 9c bd d0 f8 87 3d 2d f9 9a 3d dc 0c 48 bd
       -0.076269954 0.06639254 0.07567058 -0.04884039
000370 52 03 21 be 41 f9 48 3e a5 2a 65 3e 19 53 3f 3d
       -0.15723923 0.19626333 0.22379549 0.046710107
000380 e0 b8 2a 3e e0 2d 4d be 62 20 8b be 42 ff d4 bd
       0.16672087 -0.20037031 -0.27173144 -0.10400249
000390 02 53 3d be 8f 56 1c 3e f4 66 1d 3d 33 f2 e6 3c
       -0.18488696 0.15267394 0.038428262 0.028191661
0003a0 c2 1c 1c be df 36 0c 3d 64 80 ef 3d 02 4f 40 3e
       -0.15245345 0.034232017 0.116944104 0.18780139
0003b0 84 64 00 be 38 f9 0e be 97 fd 35 be 08 53 fc bb
       -0.12538344 -0.13962257 -0.17772518 -0.007700328
0003c0 18 8a 69 3e 7f f2 97 3d 56 fa 17 3e ae a9 18 3e
       0.22806585 0.07419299 0.1484159 0.14908478
0003d0 15 5d 19 bc c0 6d 8e bc 93 c3 55 be 22 4b b4 3d
       -0.009360571 -0.017386317 -0.20875387 0.08803393
0003e0 f6 ee 2c 3e d3 16 35 3e da cc a5 bd 97 f3 26 3e
       0.16888031 0.17684488 -0.08095713 0.1630386
0003f0 63 94 9f 3d 9b e4 cf 3d aa 66 25 bd 6b a8 ab 3c
       0.077919744 0.10151025 -0.04038111 0.020954331

layers.2.weight f4 [256, 512]
000000 26 2d cf 3c fb a2 52 bc c7 45 c8 bc 4b 78 16 3b
       0.025290083 -0.01285624 -0.024447335 0.0022959884
000010 35 71 b9 bc b2 72 85 bc d3 9d fb 3b e2 b2 22 bc
       -0.02263699 -0.016290043 0.007678726 -0.009930344
000020 0c 52 cb 3c 5b 8b 37 bd 32 2f 6a 3c d7 47 8e bc
       0.024819396 -0.044810634 0.014293479 -0.01736824
000030 98 12 40 3c bf 3f a5 bc 72 59 3f bd 67 d8 12 bc
       0.011723183 -0.020171998 -0.04671616 -0.008962727
000040 8b 9e ec bc 4f 58 1d 3b 45 70 15 3d c2 57 a4 bb
       -0.028884193 0.0024008935 0.03648402 -0.0050153444
000050 cc 45 cb bc d4 aa 10 bd 50 53 1e bd d9 d0 39 bd
       -0.024813555 -0.035319164 -0.03865367 -0.04536519
000060 1f 5b 97 3c 64 9a 9b bb 26 93 00 3d d9 eb 1b bc
       0.018476067 -0.0047486294 0.03139033 -0.00951668
000070 47 79 7a 3c f2 9a f6 bc 49 5c 09 3c 29 92 cf 3b
       0.015287704 -0.03010318 0.008383819 0.0063345623
000080 21 38 08 bc 73 25 65 3c 82 e6 8c 3c 9b 4f 82 3c
       -0.008314163 0.013985979 0.017199758 0.0159071
000090 40 b8 0e 3d b8 3f 27 3b 21 8b 22 bc a4 65 0b bd
       0.034843683 0.0025520157 -0.009920866 -0.03403248
0000a0 18 a8 82 3b d9 55 c7 3c 08 1b be bb 73 1a e2 bc
       0.0039873235 0.024332928 -0.005801562 -0.027600503
0000b0 05 27 22 bd 25 e2 82 bc 8c 52 a2 bc bf 31 d0 3c
       -0.039587993 -0.015976975 -0.019814752 0.025414346
0000c0 13 d0 38 3c 08 95 f8 3c cc b3 ee 3c 91 89 33 bc
       0.0112800775 0.030344501 0.029138468 -0.010958091
0000d0 ba 94 36 bd 68 a5 33 3c e8 3a 96 3c 96 36 e8 3c
       -0.04457543 0.010964729 0.018338636 0.028346341
0000e0 80 28 9b bc 9e 5e f5 bc 89 c3 83 3c 1b e3 38 bd
       -0.01894021 -0.029952344 0.01608445 -0.04513846
0000f0 5b b2 80 3c 55 36 62 bc 88 df 8a 3c b5 a0 07 3d
       0.015710047 -0.013806899 0.016952291 0.033112247
000100 3d de 46 bb 78 04 8e 3c 58 db a1 bc 13 0b b9 3c
       -0.0030344867 0.017336115 -0.019757912 0.022588288
000110 6b 00 d8 bb fc 1e 09 3c 8b 90 6d 3b 91 55 ef bc
       -0.0065918467 0.008369204 0.0036249484 -0.029215606
000120 a2 ff 04 bd 43 11 88 3c bf eb ac bb 09 e7 20 bc
       -0.032470353 0.016609794 -0.0052771266 -0.009820708
000130 6e 03 30 bd 4e 1f cc 3c 44 6c 41 bc 69 05 06 3d
       -0.04297202 0.024917271 -0.011805598 0.032720003
000140 35 7f 5b 39 6a 3a a2 3c 90 47 8b bc 6a e1 c7 3c
       0.00020932856 0.019803245 -0.017001897 0.024399478
000150 3c e4 4b bd 3e 13 43 bd 2d c3 9a 3b 11 5f 7a bc
       -0.049778208 -0.047625773 0.004722974 -0.015281455
000160 2e b9 16 bd aa 23 e0 3c ab 86 c8 ba 17 c4 30 bd
       -0.036797695 0.027360756 -0.0015298923 -0.043155756
000170 ef d0 47 bd 23 b2 0b 3d e8 fc 0a 3d da 47 2f 3b
       -0.04878324 0.03410543 0.033932596 0.0026745708
000180 da ee 4b bc dd 80 b3 bc d9 84 d7 bb 9e 9b d0 3c
       -0.012447083 -0.021912033 -0.006577116 0.025464829
000190 a7 2c a0 3c 09 c3 c6 bc a8 82 81 ba 66 87 3c bd
       0.019552542 -0.024262922 -0.0009880858 -0.046027564
0001a0 1b 22 98 bc 7f d0 89 bc d9 d0 f5 3c d1 c3 c2 3b
       -0.01857095 -0.016823051 0.030006813 0.0059437533
0001b0 2e e3 32 bd b6 a1 c8 bb 7b 70 f0 bc 6e 8c f3 3c
       -0.043673687 -0.006122793 -0.02935051 0.029730048
0001c0 a1 7c df bc 46 86 d1 3c 81 bc 33 ba 08 e9 10 bd
       -0.027281107 0.025576722 -0.00068563974 -0.035378486
0001d0 a2 3e ce 3c 8c ea 0e 3d b9 91 1c 3c d2 8b 87 b9
       0.02517635 0.03489165 0.009556227 -0.0002585338
0001e0 54 c7 f4 3c 91 33 d5 3b cd 0b a0 bc a4 f2 bd bc
       0.029880203 0.0065063913 -0.019536877 -0.02318699
0001f0 5e f6 0c ba e3 51 e5 3c 1d fc 57 3b df 4a 89 3c
       -0.0005377288 0.027993148 0.0032956668 0.016759334
000200 4e ba 04 3d af df 3a bd 43 f0 e8 3c 51 2b a7 3b
       0.032404236 -0.045623478 0.028434878 0.0051015993
000210 b6 ef 9d 3c 0d c8 13 bd 39 40 c7 3c d0 42 49 bd
       0.019279342 -0.036079455 0.024322616 -0.049135983
000220 2f 71 a9 3c 54 68 4f bc 8f 37 31 bc 53 9a 37 bd
       0.020683853 -0.012659151 -0.010816469 -0.04482491
000230 15 92 82 bc 6c ad 72 3c f1 af b8 bc 51 b4 01 3d
       -0.015938798 0.014811855 -0.022544833 0.031666104
000240 2f 32 9a 3c 21 b5 26 bc 08 e8 37 bd f5 0b c3 3b
       0.018822758 -0.01017502 -0.044899017 0.005952353
000250 48 a4 45 bd 65 89 2f bd 2d 0c 75 3c 95 70 9f bc
       -0.048252374 -0.04285564 0.014956516 -0.019462863
000260 a6 8b 09 3d 8a b9 56 bc cf 96 30 3c f0 75 17 bd
       0.033580445 -0.013105759 0.010778143 -0.03697771
000270 4e 77 10 bd cc 42 25 3c 77 6a 2e bd 07 d8 3c bd
       -0.035270028 0.010086726 -0.042582 -0.046104457
000280 6f d5 77 bc b6 5a ba bc a9 11 46 bd a8 2d 89 39
       -0.01512657 -0.022748332 -0.048356686 0.00026164693
000290 2c a1 b5 bc b4 85 11 3c 9c 43 3d 3c 54 cc 1c 3b
       -0.02217158 0.008881975 0.011551764 0.00239255
0002a0 e8 93 f1 ba 9d 40 8e 3c e8 63 52 bd 41 13 bc bc
       -0.001843092 0.017364794 -0.05136481 -0.0229584
0002b0 7f 2e f6 bc 63 45 9f 3c b3 50 74 bc c5 42 ba 3c
       -0.030051468 0.019442266 -0.014911818 0.022736916
0002c0 00 bc b0 3c 2d dd 62 3c b9 df e0 bc b5 b8 42 3c
       0.02157402 0.013846678 -0.02745043 0.011884858
0002d0 1a fc b2 bc 05 c0 e0 bc 1f e4 10 bd 04 8e e4 bc
       -0.021848727 -0.027435312 -0.035373803 -0.02789975
0002e0 fb 61 30 3a b9 cb c7 bc c9 b5 a9 bc a2 45 18 3c
       0.00067284674 -0.024389135 -0.020716565 0.0092939455
0002f0 49 27 0d 3a 49 67 47 bd b7 eb ea ba 61 19 ca 3c
       0.0005384577 -0.048682485 -0.0017923032 0.024670305
000300 39 9d 21 bc 0f 7e a0 3c 66 ff 77 3b 62 e1 27 bd
       -0.009864145 0.01959136 0.0037841438 -0.040986426
000310 13 79 2a 3c e8 ff c8 3c cc 85 18 bd ec 7b 7d bc
       0.010404843 0.024536088 -0.037236974 -0.01547144
000320 b1 7d e6 bb 02 f6 99 bc ad 4a 49 bd e1 23 7e ba
       -0.0070340266 -0.018794063 -0.049143482 -0.00096946774
000330 df e9 ab 3c 76 ef c1 bc 88 68 2d bd 8f ed 37 bc
       0.020985542 -0.023673754 -0.042336017 -0.011226072
000340 e9 41 13 3c b8 6a 95 bc 7a 5b 59 3c 7a 1d 02 3d
       0.008987882 -0.018239364 0.013266439 0.031766392
000350 b6 94 0e 3b 7a 71 3d bd c5 3b 17 bb 01 02 ab bc
       0.002175612 -0.046250798 -0.0023076397 -0.020874979
000360 23 a5 65 bc 95 ba 31 bd fc b8 fc 3c 87 0b fd 3c
       -0.014016422 -0.04339083 0.030849926 0.030889286
000370 cc 99 43 3c ba 40 95 3c 38 84 d6 bc db 4a 01 3d
       0.0119385235 0.01821934 -0.026186094 0.03156553
000380 6f 53 97 bc 88 4b ac bc 51 20 ac 3c 69 00 d8 3c
       -0.018472401 -0.02103211 0.021011503 0.026367383
000390 52 25 9b 3c d7 08 fd 3b df 8d a2 bc 2f d6 78 bc
       0.018938694 0.007722001 -0.01984304 -0.015187784
0003a0 ae 03 b8 3c cd 7e 29 bd 1a f2 3a bd d7 25 29 3b
       0.022462692 -0.041380692 -0.045641042 0.0025809908
0003b0 f8 3c ce bb e9 82 8c bc ad 91 bf bc c3 4f ef 3c
       -0.006293889 -0.017152267 -0.023384893 0.029212838
0003c0 84 8c 11 bd c9 21 4d bd 63 d6 c4 3c ce c4 31 3c
       -0.035534397 -0.05008105 0.024028009 0.010850145
0003d0 36 ca 1d bd 3d b5 7c 3c 06 55 e2 3a b8 e9 9a 3c
       -0.03852292 0.01542407 0.0017267771 0.018910274
0003e0 05 f5 a0 bc 2c de 04 bd 49 cc db bc 51 21 e7 3c
       -0.019648084 -0.032438442 -0.02683081 0.028214129
0003f0 01 c2 07 bd 7b 5c b3 3c ec 1e 9a bc 8d 1d c7 bc
       -0.033144 0.021894684 -0.018813573 -0.024306083

layers.2.bias f4 [256]
000000 51 f5 24 bd ba 5b 2f 3c 91 84 8b bc b9 30 3a bc
       -0.040273014 0.010703022 -0.017030986 -0.011364155
000010 2c 0a 28 bd a4 8d 21 bd af f7 fa 3c f4 9f 26 3d
       -0.041025326 -0.03944172 0.030635683 0.040679887
000020 2d e3 ce bc 18 54 1a bd 26 bf 9d bc c9 95 af bc
       -0.02525481 -0.037677854 -0.019256186 -0.021433728
000030 7a e0 15 bd 1e 10 4c 3c ce 8f bd 3c c8 2b 96 3c
       -0.03659103 0.0124550145 0.02313986 0.018331423
000040 19 1a 5b bc ca 49 04 bd a9 4c 9a 3c c4 f1 49 bc
       -0.013372921 -0.032296933 0.018835383 -0.012325708
000050 a0 fe 01 bd a6 dc dd bc 4f 2b 75 bb 90 c1 b8 3c
       -0.03173697 -0.027082752 -0.0037409847 0.022553235
000060 e8 c1 fc 3b db aa eb bc d2 99 0d bd 2d f6 0f 3d
       0.007713545 -0.028767994 -0.034570523 0.03514688
000070 e4 9b 96 bc 4f 81 29 3d 88 89 56 bc 3f 3f 03 bd
       -0.018384881 0.041383084 -0.013094313 -0.032042738
000080 79 f2 5b bc 0d 48 ca 3c d6 9c a4 3c 42 7a 8d bc
       -0.013424509 0.02469256 0.020094316 -0.017270211
000090 3b ac ce bc 88 f6 95 3b 81 69 c2 3a f1 fe 6c 3b
       -0.02522861 0.004576508 0.0014832468 0.00361627
0000a0 ed 07 29 bc 73 3b 29 bd 69 04 8f 3c 26 75 90 3c
       -0.010316831 -0.04131646 0.017458158 0.017633986
0000b0 79 43 09 3d 88 11 3b 3d b6 34 94 3c 26 b5 0e 3d
       0.033511613 0.045671016 0.01809154 0.034840725
0000c0 6a 12 28 3d b4 9d d3 bc 1f ba f0 bb 94 6d 9e bc
       0.041033186 -0.025832035 -0.007346406 -0.01933936
0000d0 8b 8e 32 bd 13 73 98 3c 7a d7 3b bd ec 1b b4 3b
       -0.04359297 0.01860956 -0.04585979 0.0054964926
0000e0 10 22 1d bd 14 f8 e7 3c a8 90 80 3c c7 a6 88 bc
       -0.038362563 0.028316535 0.015693977 -0.016681088
0000f0 49 00 3a bd 28 ca 2c 3d 6c 59 52 bd bd 0d bc 3c
       -0.04541043 0.04218498 -0.05135481 0.02295577
000100 1c 27 16 3d 90 fa 19 3d 9f fe cb 3c 19 4d 4c bb
       0.03665839 0.03759247 0.024901686 -0.0031173883
000110 bf dd 08 bd db 73 96 3c 54 98 00 bd d5 33 a2 bb
       -0.0334146 0.018365791 -0.03139527 -0.0049500265
000120 49 ba ac 3c 3a 6f 09 3d 96 11 d6 bb ba c0 15 bd
       0.021084921 0.03355334 -0.006532858 -0.03656075
000130 7f de e0 bb 8f 54 47 bc 41 90 8e bc 96 00 13 bd
       -0.006862461 -0.012166156 -0.01740277 -0.03588923
000140 89 0e 3f 3d 73 bd fc bb 9b be 22 39 84 16 12 bd
       0.04664472 -0.007713014 0.0001552053 -0.035666004
000150 6a 11 a5 b9 c0 36 f1 bc e6 88 07 bd b8 b1 be 3c
       -0.00031484227 -0.029445052 -0.03308954 0.023278102
000160 8a 61 36 bd eb 43 14 bd 8e 10 a6 bc 50 31 f1 bc
       -0.044526614 -0.036197584 -0.020271566 -0.02944246
000170 01 69 3e bd 52 15 06 3d f3 8a 39 3c 08 13 b3 3c
       -0.04648686 0.032735176 0.011324632 0.02185966
000180 17 11 b0 bc 28 69 af bc c4 9c f7 3a a7 40 e8 bc
       -0.021492524 -0.021412447 0.0018891324 -0.028351141
000190 f0 e3 32 3d f6 2b ba bc bd 92 f3 3c 98 33 83 bb
       0.04367441 -0.02272604 0.029733056 -0.004003953
0001a0 cd f8 4b 3c a2 22 b1 3b 98 61 e3 bc b6 d2 2d 3c
       0.012449455 0.00540574 -0.027756497 0.010609319
0001b0 ec bc bc bc 53 f3 6f 3c 8a 3a 05 bd a9 4a 32 bd
       -0.023039304 0.014645415 -0.03252653 -0.043528233
0001c0 71 1c 12 bd 8c 70 b0 bb 90 f1 74 bc fe be 0f 3d
       -0.035671655 -0.0053845104 -0.014950171 0.035094254
0001d0 12 98 0e 3d 43 08 20 3d b4 d9 0b bd 52 26 e5 bb
       0.034812994 0.03907038 -0.034143165 -0.0069930935
0001e0 52 e3 18 bd 03 d8 90 3c 66 72 86 bc b9 33 51 3b
       -0.037326165 0.017681127 -0.016411971 0.0031921698
0001f0 bf 71 39 3c 2c b9 b7 bb 63 c0 d5 bc 78 39 ea 3c
       0.011318623 -0.005606791 -0.026092714 0.028591856
000200 53 1c 2d 3c 73 88 9c 3a b9 fb d0 bc 29 e9 21 bd
       0.010565835 0.001194252 -0.025510656 -0.039529
000210 84 97 89 3b 0a 89 08 3d 3b 2b 25 bd db 78 e6 bc
       0.0041989703 0.033333816 -0.04032443 -0.0281338
000220 9e 51 48 bd 6f 97 33 3c eb f3 47 bd 58 c7 f9 3b
       -0.04890596 0.010961398 -0.048816603 0.0076226406
000230 2b f9 bc bc a0 da e4 bc 66 8b d4 3c 0a 98 67 3c
       -0.023068031 -0.02793628 0.025945377 0.01413537
000240 19 2b 26 bb 30 ff 4b 3c 54 c2 d4 bc 18 69 ad bc
       -0.0025355278 0.012450978 -0.02597157 -0.021168277
000250 34 cf ca 3c 98 cf e6 ba 7b 52 19 bd ed 82 6e bc
       0.024757005 -0.0017609475 -0.037432175 -0.014557582
000260 61 a4 d7 bc 66 ba d1 3c 5e f1 76 bc a7 e0 17 bc
       -0.0263235 0.025601577 -0.015072195 -0.00926987
000270 8c 69 1b bd 3e 2f 2d 3d c4 53 e5 bc 61 64 13 bd
       -0.037942454 0.04228138 -0.027994044 -0.0359844
000280 08 61 b3 bb 74 5e 0d 3c 12 97 38 3d 9b 7e a1 3c
       -0.0054742135 0.008628476 0.045065947 0.01971369
000290 2d f7 1e bb eb ae 90 3b 56 c1 33 bd db 54 f8 3b
       -0.0024256215 0.004415383 -0.04388555 0.007578475
0002a0 ee b3 96 bc 59 18 a6 bb 47 74 3b 3b 8c 57 8a bc
       -0.018396344 -0.0050688204 0.0028603242 -0.016887449
0002b0 09 cd be 3c 54 ef b4 3c fd c2 8e ba 61 77 a5 3b
       0.023291128 0.022086777 -0.0010891851 0.0050496315
0002c0 c6 d9 ec bc 6f 53 c0 bc ac 02 25 bd 92 fa bd 3c
       -0.028912436 -0.023477284 -0.04028575 0.02319077
0002d0 56 1c 05 bd 15 f2 12 3d da d0 28 bd 79 e6 b4 3c
       -0.032497726 0.0358754 -0.0412148 0.022082554
0002e0 51 c3 be 3c c6 85 15 bd 4a 2a 92 bb df f2 8d 3c
       0.023286493 -0.03650453 -0.0044606077 0.017327724
0002f0 1a f4 17 bd 55 3d b4 3c 65 ea 5e bc 89 0c 0a 3d
       -0.037098028 0.022001902 -0.013605689 0.03370336
000300 75 4c 7a 3c 16 d3 3b bd 50 b8 79 3c 36 ed 5b bd
       0.015277018 -0.045855604 0.015241697 -0.05369302
000310 6f 15 a9 3c f4 a4 8e bc f0 6c ac 3c 86 a6 31 3c
       0.020640103 -0.01741264 0.02104804 0.010842925
000320 10 ac b4 bc 06 c9 16 bd c5 9e d8 bc d2 9d 15 bd
       -0.022054702 -0.036812805 -0.026442895 -0.036527462
000330 ae f2 c4 3b 16 86 33 bb c1 77 d4 3b 5e c9 68 ba
       0.006010375 -0.0027393154 0.0064840023 -0.00088801037
000340 06 ed a2 bc 5c 80 02 3d e1 a7 43 bd e8 d5 18 bd
       -0.019888412 0.031860694 -0.047767524 -0.037313372
000350 23 e8 df bc d1 d4 74 bc 9f 1e 18 bd d4 a5 f5 bc
       -0.027332371 -0.0149433175 -0.037138578 -0.0299863
000360 64 f0 19 3d 0a f1 0d ba 77 16 2a 3d 0b 3e 28 3d
       0.03758277 -0.0005414641 0.04152533 0.041074794
000370 06 d0 24 bd a7 cd d6 bc e8 4e 2e bc 39 a9 eb 3c
       -0.04023745 -0.02622111 -0.01063893 0.028767215
000380 1c e5 b8 bc 3c e7 07 bd 86 2e 1b bd 68 aa 3c bc
       -0.022570185 -0.033179507 -0.037886165 -0.011515237
000390 bd 96 95 3c c0 89 ac bc a0 6e a4 bb 77 96 3e bb
       0.018260354 -0.021061778 -0.0050180703 -0.0029081383
0003a0 cd d0 3c bc 7c 17 ce 3b 5e ce 58 bb ae 52 d1 3c
       -0.011524391 0.0062894206 -0.0033081989 0.02555212
0003b0 b6 db 03 3d 14 4a 00 bd e5 63 3a 3d 46 1f f6 3c
       0.032191955 -0.031320646 0.045505423 0.03004421
0003c0 13 a9 53 3b 24 dc 7c bc 07 69 1b 3d 5e 1b e6 bc
       0.003229682 -0.015433345 0.03794196 -0.028089222
0003d0 55 bc 50 bd ae aa 7a 3b 7b 9a ab 3c a3 9f 2c 3d
       -0.050960857 0.0038248706 0.020947685 0.04214443
0003e0 7a dc 98 bc de de 04 3d 7a 36 49 bd 44 4a c0 ba
       -0.018659819 0.032439105 -0.04912422 -0.001467057
0003f0 40 9c 38 bd d3 55 f3 bc d2 ff 63 3c 0b 49 33 bd
       -0.045070887 -0.02970401 0.013915973 -0.04377083

layers.4.weight f4 [128, 256]
000000 2e 72 c0 bc 70 19 49 3d b3 09 d3 bc f3 38 9f 3d
       -0.023491945 0.049096525 -0.02576146 0.07774534
000010 74 69 2d 3c 25 10 40 3d 03 ce 30 3d 37 5e c3 3c
       0.010584224 0.046890397 0.043165218 0.023848636
000020 42 db 80 bc 92 0f 0e 3d f5 92 3f bd cf 29 69 3c
       -0.01572955 0.034682818 -0.04677101 0.014231159
000030 06 ed 81 3d ce 5b b5 bc 2d 92 7c 3d b1 74 54 b8
       0.06344037 -0.022138502 0.06166284 -5.0653416e-05
000040 7a d0 3f bc 9a 7c 7c bc 57 ed be bc 2f 5d f5 bc
       -0.0117074195 -0.015410567 -0.023306532 -0.02995166
000050 47 51 1a bd b2 ae 99 3a 92 18 ae bc 40 8e 1a bd
       -0.03767517 0.0011725037 -0.02125195 -0.037733316
000060 44 02 42 bd ef 47 02 bc 13 30 81 3d ee 82 a1 bc
       -0.047365442 -0.007951721 0.063079976 -0.019715752
000070 4b b6 0e bc df 49 3d 3d bd a1 f6 3c ec 0d 2f bd
       -0.008710454 0.046213027 0.03010642 -0.042737886
000080 a5 9b 25 bc a4 51 73 3d b1 24 27 3d f8 fa b2 3d
       -0.010107909 0.05940403 0.040806476 0.08739275
000090 fd 6a a6 bc 7c d4 86 3d 67 1e ad 3c 08 1f 79 3d
       -0.020314688 0.06583497 0.021132661 0.06082061
0000a0 9b bc 52 3d 37 e3 7a 3d c8 42 0f 3d 66 94 57 3d
       0.0514494 0.061251845 0.034975797 0.05263176
0000b0 48 ee 49 3c 0e b7 8a 3d c4 be 3f 3d ca 33 c9 3b
       0.012324877 0.06773196 0.046812788 0.006140207
0000c0 8b 0b 38 3c 7f 42 83 3b 90 9e b8 bc 76 1d e9 3c
       0.011233221 0.0040057297 -0.022536546 0.02845643
0000d0 ce 93 0a 3d 47 f9 43 bc 17 44 24 bd e3 e0 7d 3c
       0.033832364 -0.011961288 -0.040103998 0.015495512
0000e0 a2 81 91 3d de ef 24 bd 23 38 11 bd 96 12 7f 3d
       0.071048036 -0.040267818 -0.035453927 0.062273584
0000f0 ed d5 78 3d 17 25 84 3d 0c e6 03 3d 20 27 6f 3d
       0.06075089 0.06452387 0.03220181 0.058386922
000100 05 95 64 ba 58 03 2f 3d 0e 86 82 ba a0 e5 76 bd
       -0.00087197154 0.0427278 -0.0009958164 -0.06027758
000110 9c 56 23 bc 28 d0 59 3b ce bd 13 3d f5 ed aa 3c
       -0.00996938 0.0033235643 0.036069684 0.02086542
000120 87 b5 3b 3d 62 8b 63 3d 7f 2c 51 bd 7e 0a c7 bc
       0.045827415 0.055552848 -0.051067825 -0.024296995
000130 b2 d5 8f 3d c1 0e 93 3c 03 01 d2 3c 66 3c 2c 3d
       0.07023181 0.017951371 0.025635248 0.042049788
000140 fa be e3 3c 6b b6 16 bd 21 84 45 3d d3 52 1b bd
       0.027801026 -0.03679506 0.04822171 -0.037920784
000150 28 81 da bc af aa 27 3d 30 ea 1b 3d 9a da b1 bc
       -0.026672915 0.04093426 0.038065135 -0.021710683
000160 86 66 73 3d 8b af 46 bd 2b 63 5b 3d 77 15 2c 3d
       0.059423946 -0.048507255 0.05356137 0.042012658
000170 62 2c a6 3c 8e 94 3c bd f3 8d a8 bc 32 40 95 3d
       0.020284835 -0.04604011 -0.0205755 0.07287635
000180 ef 8f c9 bc cb 7b 9c 3d 82 74 79 bc a3 57 41 bd
       -0.024604766 0.07640799 -0.0152255315 -0.047202718
000190 7b 3f a4 bc e1 e1 3a bd fe fa 59 3b 9a 2a cb bb
       -0.020049801 -0.04562557 0.0033261175 -0.006200147
0001a0 b2 f3 8b bc d0 81 7e 3d f9 aa 58 bd 11 21 3b bc
       -0.017083976 0.062135518 -0.052897427 -0.011421458
0001b0 b5 8a 90 3d 47 e4 b1 bc 5f dc 2e 3d e7 af bd 3c
       0.07057706 -0.021715296 0.04269063 0.023155166
0001c0 a0 cc 6d ba ef 6c 36 3d f9 a2 a9 3d 94 5d a7 bd
       -0.0009071324 0.04453748 0.08283038 -0.081721455
0001d0 db b6 58 bd a5 60 39 bd 9e e0 65 3d 73 c3 05 bd
       -0.05290876 -0.045258183 0.056122415 -0.032657098
0001e0 1d 57 81 3c 16 2d 54 3d 6d 27 c3 bb f6 41 62 3d
       0.01578861 0.05180081 -0.0059556277 0.055238687
0001f0 ac dd 4c bd 50 3d 56 bd 01 86 31 3d 09 6b d2 bb
       -0.05001609 -0.052304566 0.043340687 -0.006421451
000200 d1 aa 33 3d ab d7 37 bc c8 f3 57 bc 50 54 86 bd
       0.043864075 -0.011220853 -0.013180681 -0.0655905
000210 53 2d 46 3d d1 f8 c4 3b 7f f6 68 3d 40 38 7f 3d
       0.04838307 0.0060111065 0.056875702 0.062309504
000220 18 59 2b bc 57 03 de bc 9b ec f6 3c a9 21 8e bb
       -0.010458253 -0.027101202 0.03014212 -0.0043375087
000230 75 e7 79 3d 1a 01 67 3d c4 9b 2a 3d 88 a7 02 bd
       0.06101175 0.056397535 0.041652456 -0.03189805
000240 77 76 5e bc 61 1d 0d 3d 1b 3d fc 3c 5a 82 d7 ba
       -0.013578049 0.034451846 0.030790856 -0.0016442046
000250 86 21 b6 bc c9 52 e4 bb 7d 3a fe 3c f4 d0 14 3d
       -0.022232782 -0.0069678766 0.031033749 0.036332086
000260 8d 33 0e bd c0 43 10 bc 8e 42 cb 3d 4f 92 2f 3c
       -0.03471713 -0.008805215 0.09924804 0.010716035
000270 dd 78 0f bd 0a 1b 64 3d 10 fb 47 3d 4d 2f 1a bc
       -0.035027374 0.05568985 0.048823416 -0.009410691
000280 ed e0 9b bc 21 7e 59 3c c0 ae 2f 3d 44 a4 77 bb
       -0.019028151 0.0132747 0.042891264 -0.003778712
000290 c2 a0 85 3d 0f b8 83 3c dd 83 2d 3d 5c e4 34 bd
       0.06524803 0.016078977 0.042362083 -0.044163093
0002a0 89 e1 2c bd db 8b 10 bd 74 58 b8 bc 47 9a b6 3b
       -0.042207275 -0.035289627 -0.022503115 0.0055725905
0002b0 8d 7a 83 bc 5e 33 39 bc 37 0d 8c 3d 5e e6 91 3c
       -0.016049648 -0.011303751 0.06838458 0.017810043
0002c0 99 ed 77 bb ab 74 fc 3c 46 c9 18 bc 70 8c 82 3c
       -0.0037830828 0.03081735 -0.009325331 0.015936106
0002d0 ed d4 46 bc 93 b1 2c 3d a6 d8 80 bc 92 8e 2f bd
       -0.012135726 0.042161535 -0.015728306 -0.042860575
0002e0 72 13 36 bd fb d6 07 bd 9b c9 42 bc 14 5a 03 3e
       -0.04445214 -0.033164006 -0.011888887 0.12827331
0002f0 38 ca 26 3d f4 b3 c2 bc 68 22 49 3c c8 01 35 bd
       0.040720195 -0.023767449 0.0122762695 -0.04419115
000300 57 7a 08 bd 3c 53 12 bb 63 a7 e3 3b a8 68 c1 3c
       -0.033319797 -0.0022327444 0.0069474443 0.023609474
000310 e9 db 45 3c 4a 42 eb bb 56 e5 4e 3d ac 85 ac bc
       0.012076356 -0.007179533 0.05051168 -0.021059833
000320 70 80 c3 3c a5 6f 1c 3d d8 41 c8 3c 30 64 79 3d
       0.023864955 0.03819241 0.02444546 0.060886562
000330 12 7f 02 3c 08 3c 08 bd 2e 6f 4d 3d f3 61 bb 3d
       0.007964866 -0.033260375 0.050154857 0.09149542
000340 82 77 85 bc 56 13 d7 bc 63 ce 34 bd c5 b3 11 3d
       -0.016292337 -0.026254337 -0.04414214 0.035571832
000350 a4 18 3f bd be e6 3d bd 5b ae f7 bb 6b fe 86 3d
       -0.04665436 -0.04636263 -0.0075586266 0.06591495
000360 fb 36 02 3d e3 85 fd bb d1 a4 fe 3c 08 31 22 3c
       0.031790715 -0.007736908 0.03108445 0.009899385
000370 08 bc 9c bc 2b 14 4b 3d a6 85 57 3c cf 2b ee bc
       -0.019132629 0.04957978 0.013154423 -0.029073624
000380 0a 62 4c 3d c2 e0 2d bc e0 6b db 3a 40 3a 64 3d
       0.049898185 -0.0106126685 0.0016740523 0.055719614
000390 bd db 8f bc 29 9e 16 bd ec 22 15 3c 81 d9 09 3b
       -0.017560834 -0.036771927 0.009102564 0.0021034183
0003a0 8a e0 c3 3d 98 91 b2 bb 50 1b 5d bd b3 08 6b 3d
       0.09564312 -0.005449485 -0.053981125 0.057381343
0003b0 ad 33 a0 3b 82 57 2b 3d ea c4 7e 3d d8 71 10 bc
       0.0048889727 0.0418315 0.06219951 -0.008816205
0003c0 b5 d6 81 bc 59 b7 f0 bc da 73 a2 3c da 5f 3e bd
       -0.01584945 -0.029384302 0.019830633 -0.04647813
0003d0 24 19 8a bc 18 c6 23 3d 35 8a 44 3c 01 9c 5e 3d
       -0.016857691 0.03998384 0.011995842 0.054347996
0003e0 01 86 5e bd d9 76 a3 bc 0d 84 55 3c 0b 99 a2 3c
       -0.054327015 -0.019954132 0.013031972 0.019848367
0003f0 ac 71 93 3c 1b e0 84 3b fa b5 7f 39 38 ae 03 bd
       0.017998539 0.0040550358 0.00024386487 -0.03214857

layers.4.bias f4 [128]
000000 49 b2 3d 3d ca 68 e1 bc 2c 3a 00 3d b1 a9 2e 3d
       0.046312604 -0.027515788 0.031305477 0.0426423
000010 4d 83 51 3d 07 be 08 bd 2c 59 b2 bc ca 16 84 bd
       0.05115061 -0.03338435 -0.021771036 -0.06449659
000020 88 7e 8b bd 04 48 1b 3c 22 46 e3 bb 15 07 2b 3c
       -0.06811243 0.009477619 -0.0069358507 0.0104387
000030 38 78 55 3b 02 68 33 3d c1 78 58 3d 5e 42 a4 3c
       0.0032572877 0.04380036 0.052849535 0.020051178
000040 7a 7b 0d 3b 87 0a 90 3d f5 5c 87 3d ae 00 40 3d
       0.002158849 0.07033258 0.06609527 0.04687565
000050 84 4e 7e 3d d9 5a 06 3a f1 e5 06 3d 99 34 bf bb
       0.062086597 0.00051252317 0.032934133 -0.0058351276
000060 0d c4 c7 3c 0d 2a 08 3c 6d c1 26 bd 56 dc 85 3d
       0.024385476 0.008310807 -0.04071181 0.06536166
000070 40 de 88 3d ab 3b 62 3a 9a 6e 41 bd 01 b6 c0 bc
       0.06683016 0.0008630107 -0.04722462 -0.023524286
000080 6e e8 8b bc 03 cb cd 3c 80 47 a6 bc 0f 38 3f bd
       -0.017078605 0.025121218 -0.020297766 -0.04668432
000090 db ea 22 bc 97 78 64 3d 16 dc 5f bd c8 f9 92 3b
       -0.009943689 0.055779066 -0.05465325 0.0044853427
0000a0 d7 c4 aa bc 43 82 54 3c f7 eb 9f bb ba 05 31 bd
       -0.020845814 0.01297051 -0.004880424 -0.043218352
0000b0 6c 6c f3 bc a6 41 f4 bb 04 2d 4f 3d b3 4a 23 bd
       -0.029714786 -0.007454115 0.05058004 -0.03986616
0000c0 45 db 27 bd 84 bb d3 3c e5 b0 99 3c 01 71 7a 3c
       -0.040980596 0.02584625 0.018761108 0.015285731
0000d0 f2 cc bd bc 7d bc f8 3c ee 55 f5 bc 24 0f 3b bd
       -0.023169015 0.030363316 -0.029948201 -0.045668736
0000e0 4c 06 6f bd 00 32 85 bb c0 17 64 3b 23 64 4b bd
       -0.058355615 -0.0040647984 0.0034804195 -0.049656045
0000f0 de 37 03 bc d3 cf 43 bd 32 f9 88 3d bb a2 fc bc
       -0.008008925 -0.04780562 0.06688155 -0.030839315
000100 35 13 11 3d 16 d4 03 bc 73 40 4a 3d 62 2c ca 3c
       0.035418708 -0.008046171 0.04937787 0.024679366
000110 cc a0 56 3d f0 9c 27 3d d0 ae 58 3d 07 eb 70 3d
       0.05239944 0.04092115 0.05290109 0.05881789
000120 9a 40 f1 3c 93 b8 89 bc 23 c3 22 3d 9c 03 eb bb
       0.02944975 -0.016811645 0.039736878 -0.007172061
000130 21 67 91 bd 53 d0 68 bc 30 a1 e3 3c b8 3a 23 3d
       -0.070997484 -0.014209825 0.027786821 0.03985092
000140 10 8d b9 3a bc 8d 1a 3c aa b7 05 bd 25 b7 5c 3d
       0.001415642 0.009433206 -0.03264586 0.053885598
000150 38 32 32 3b 7e 63 06 3c ae ad 51 3d 0f 67 42 bd
       0.0027190577 0.008202432 0.051191024 -0.047461566
000160 56 ec 94 3c 5a 9d 1e bc 11 8b de bc f1 7f cd 3a
       0.0181791 -0.00968107 -0.027165921 0.0015678388
000170 4d 8f 37 3c 26 7a 08 3c a4 e2 30 3d 0c 68 1a bd
       0.011203599 0.008329904 0.04318489 -0.037696883
000180 e3 f3 36 bd 34 4d 0a 3d 6c aa 4a bd e5 ec 4c bd
       -0.044666182 0.033765033 -0.049478933 -0.050030608
000190 30 b3 34 bd 08 c4 0f 3d ff 85 1e 3d 18 ca c5 3c
       -0.0441162 0.03509906 0.038702007 0.024144217
0001a0 00 dd 38 bc 8e f5 54 3d cd e0 1b 3d 85 5b e7 3c
       -0.011283159 0.05199199 0.038056184 0.028241882
0001b0 a5 ba 1a 3d cb b7 03 3c a1 6f 5e b9 ad eb dd bc
       0.037775654 0.008039425 -0.00021213155 -0.027089918
0001c0 8b 7c a5 bc 05 a3 ef 3c 20 f3 a6 3c 54 16 ae 39
       -0.020200988 0.029252538 0.020379603 0.00033204502
0001d0 35 c4 a8 bd 97 cf 46 3c 90 e6 35 bd 8b c5 a6 bc
       -0.082405485 0.012134454 -0.044409335 -0.020357868
0001e0 2c 53 ec bc 18 d5 1d bd fa 5f 5b bd 1b 90 78 bd
       -0.028848253 -0.0385333 -0.053558327 -0.060684305
0001f0 05 1c 95 3b 4a 03 89 bd 33 78 85 bc 3e 9a 21 bd
       0.0045504593 -0.066900805 -0.016292667 -0.039453737

layers.6.weight f4 [1, 128]
000000 6b 71 b0 3d a1 79 07 bc d0 3b ed 3b 2d e7 6d 3d
       0.08615383 -0.008268745 0.007239796 0.058081795
000010 7b 38 0d 3d 4f 76 df bc 11 5b dd 3c 14 9a 9d bb
       0.034477692 -0.027278094 0.027020963 -0.0048096273
000020 54 de 8e bd ff b8 34 bd 54 b0 8e bd 38 4a 9f 3d
       -0.069759995 -0.04412174 -0.06967226 0.07777828
000030 ba bb 8a bc f4 1f 56 3d 10 17 91 bd 3e ca 36 bd
       -0.016935218 0.052276567 -0.07084477 -0.044626467
000040 96 df 43 3d d6 f0 9b 3d d7 ef 28 3d 71 77 8e 3c
       0.04782065 0.07614295 0.041244354 0.017390938
000050 9a 6e 08 bd d2 79 6b bc 16 f1 c0 3b 10 a2 de 3c
       -0.033308603 -0.014372306 0.0058881147 0.027176887
000060 42 a2 46 3d 40 ea b8 3d a2 61 5a bd b5 10 a0 3d
       0.048494585 0.09029055 -0.053315766 0.078156866
000070 e7 35 95 3d fc e7 97 3c 68 60 81 bb 9d 3d cc 3d
       0.07285672 0.018543236 -0.00394826 0.09972689
000080 36 29 be 3d cb c5 f6 3c 6e db 5a bd 25 cc 87 bd
       0.09285204 0.030123612 -0.05343192 -0.06630734
000090 21 79 bc bc 4b 5a 5b 3d cd 75 5c 3d 67 94 3f 3d
       -0.023006978 0.053552907 0.05382328 0.046772387
0000a0 a5 31 4f bd 68 16 31 bc df 60 49 bd 30 48 af 3d
       -0.050584454 -0.010808565 -0.04916465 0.085586905
0000b0 3a 4e 4a 3d 68 0f 1b bd 2a 81 f9 3b 33 ff 4f bc
       0.04939101 -0.03785649 0.0076142745 -0.012695122
0000c0 ee a1 bb bb eb a2 40 3d dc 94 38 3c 0f 25 3c 3b
       -0.0057260906 0.04703037 0.01126596 0.0028708612
0000d0 5e 21 a2 3d 73 b9 aa 3c f3 52 1e 3c 30 66 16 bd
       0.079165205 0.020840382 0.009663331 -0.036718547
0000e0 de 56 fd bc 5e c1 c4 3c 0a 0c a1 3d 2b fe bd bd
       -0.03092521 0.024017986 0.078636244 -0.09276994
0000f0 0f d2 5e 3d 09 d7 a2 bd c6 47 b5 3d b9 6e 94 bd
       0.054399546 -0.07951171 0.0885158 -0.07247681
000100 7c ce 7b b7 ac 42 19 3d 84 af d3 bd 79 d0 bb 3d
       -1.5008842e-05 0.0374171 -0.10336211 0.091706224
000110 ba e9 3a 3d 3a 07 e4 3c eb 58 6b 3d 95 c0 d1 3c
       0.045633055 0.027835477 0.057457846 0.025604526
000120 ab 57 32 3d 10 7e 82 3d fd 56 a1 bd ce d9 98 3d
       0.043540638 0.06371701 -0.0787792 0.07463418
000130 5a a4 eb bc 42 ea 8f 3d 5f 7e d8 3c dd 9f 09 3d
       -0.028764892 0.07027103 0.026427446 0.033599723
000140 5b b2 23 bd cd 4f 73 3d 10 1b 3e 3b e8 d6 19 3d
       -0.039965015 0.059402276 0.002900783 0.037558466
000150 09 29 80 bd 41 95 35 3d 34 7a 01 bc 6d 2f 20 3d
       -0.06257827 0.044331793 -0.007902671 0.03910773
000160 23 7c 10 bd 5f dc 44 bc 70 c9 ea bc f7 b8 66 3d
       -0.035274636 -0.012015431 -0.028660506 0.05632874
000170 7f f8 21 bc 1c e9 b2 3d db 28 de bc a7 4f af 3d
       -0.009885906 0.08735868 -0.02711909 0.08560114
000180 af 4b b1 ba a9 53 b8 bd c0 f3 34 3d 87 20 a8 bd
       -0.0013526584 -0.09000332 0.04417777 -0.08209329
000190 41 bb cb 3b 94 43 18 bd b4 c8 5b bd b5 87 2e 3d
       0.0062173908 -0.037173823 -0.053658202 0.04260989
0001a0 87 c3 9c 3d 9e 94 a0 3d d7 c9 00 bc c3 93 4e 3d
       0.076544814 0.078408465 -0.007860622 0.050433885
0001b0 a4 e2 8e 3b 61 37 9b 3d 4f 19 1e ba d8 42 66 bb
       0.0043605138 0.07578922 -0.0006030993 -0.0035135057
0001c0 60 78 05 3d b1 46 50 3a 8c a1 a9 bd e0 49 ad 3a
       0.0325855 0.0007945104 -0.08282766 0.0013220869
0001d0 97 c3 eb 3c fe fe 52 bd d5 fa 94 bd d1 97 0a bd
       0.028779788 -0.05151271 -0.07274405 -0.03383619
0001e0 0e 12 21 bd 88 20 0c bc 20 fe 9d bd 30 1a d5 3c
       -0.03932386 -0.008552678 -0.07714486 0.026013464
0001f0 5a 41 07 3d 40 a4 9b bc 8c 71 95 3d 17 1f 26 bd
       0.03302131 -0.018999219 0.07297048 -0.040556993
