Part2/mlp_eigenvalue_model.pth (torch, 695772 bytes, 7 tensors)

layers.0.weight f4 [512, 16]
0	0x3e599907	0.21249782
1	0xbe7debdf	-0.24797009
2	0xbd992e52	-0.07479538
3	0x3e0f814b	0.14014165
4	0xbe2d0418	-0.16896093
5	0x3e05e472	0.13075426
6	0x3da05fb7	0.07830756
7	0xbe798b7e	-0.24369618
8	0xbe54326a	-0.20722356
9	0x3e5c509b	0.21515124
10	0xbd2955a3	-0.041341435
11	0x3d717682	0.05895091
12	0x3dbc6a15	0.09199921
13	0xbd177f73	-0.03698678
14	0x3d63c381	0.05560637
15	0xbe3313ca	-0.17488018
16	0x3e3cf72b	0.18453662
17	0x3e767e67	0.24071656
18	0x3e20c8c6	0.15701589
19	0x3d8c6245	0.06854681
20	0x3e774973	0.24149112
21	0x3bf65c6a	0.007518341
22	0x3d8bc715	0.06825081
23	0x3d37b503	0.04485036
24	0x3d6a02cd	0.057131577
25	0x3d2b5af4	0.041834787
26	0xbde56cae	-0.1120237
27	0xbd03e330	-0.032199085
28	0x3e4b435e	0.19849917
29	0xbbbe2893	-0.0058031767
30	0x3dd470b2	0.103730574
31	0x3d64a9bc	0.055825934
32	0xbe6159a2	-0.22006848
33	0x3d92ce0c	0.071682066
34	0xbe327760	-0.1742835
35	0x3e006f5e	0.12542483
36	0xbe1b57e9	-0.15170254
37	0xbe83fe2d	-0.25779858
38	0x3d883eb1	0.066525824
39	0x3d4d4da1	0.05012286
40	0x3d61e6ec	0.055151865
41	0xbbf473f9	-0.007460114
42	0xbe262c58	-0.16227853
43	0xbe5b3a6f	-0.2140901
44	0xbdc07924	-0.09398106
45	0xbd85d29e	-0.06534313
46	0x3dbeec99	0.09322471
47	0xbe188ac7	-0.1489669
48	0x3df32356	0.11871974
49	0xbd1320c4	-0.03591992
50	0xbe1594ee	-0.14607593
51	0x3d5e3ce7	0.0542573
52	0x3d81b3de	0.06333135
53	0xbd2a2e92	-0.04154832
54	0x3d9e8919	0.07740993
55	0x3e7e4289	0.24830069
56	0x3c2c9377	0.010533205
57	0x3e1a28b9	0.15054597
58	0x3e23f51b	0.16011469
59	0xbda9bb62	-0.082876936
60	0xbe1ea6b1	-0.15493275
61	0xbe227d3e	-0.15868089
62	0xbd36934d	-0.04457407
63	0x3e4171f8	0.18891132
64	0xbd87f94e	-0.06639348
65	0x3cfc57ce	0.030803587
66	0xbdf8a344	-0.121405154
67	0x3e5378d7	0.20651565
68	0xbd5eb5a5	-0.05437245
69	0xbca0aa55	-0.01961247
70	0x3db4dae8	0.088308156
71	0x3e569277	0.2095431
72	0x3e2f9326	0.17145976
73	0xbde23468	-0.11045152
74	0x3d2ff145	0.042954702
75	0x3e50e763	0.20400767
76	0xbd8c625a	-0.068546966
77	0x3c0358ce	0.008016778
78	0xbe7ac559	-0.24489345
79	0xbe83db26	-0.25753134
80	0x3e797cdd	0.24364038
81	0xbd54c71b	-0.051947694
82	0xbe255925	-0.16147287
83	0xbd32ac16	-0.043621145
84	0xbea14376	-0.3149678
85	0x3dab5ca0	0.08367276
86	0x3e4d6361	0.20057441
87	0x3e75d4e2	0.2400699
88	0xbe5a5a6d	-0.21323557
89	0xbdf9fcea	-0.12206443
90	0xbe242314	-0.16029006
91	0x3e09e377	0.13465677
92	0x3cee19b7	0.029064996
93	0xbe0cf397	-0.13764797
94	0x3e1b0ee7	0.15142404
95	0xbd91cba7	-0.07118922
96	0xbdb70802	-0.08937074
97	0xbd81ed34	-0.06344071
98	0xbcf2c4ee	-0.029634919
99	0xbd01a07b	-0.031647187
100	0xbd1d87cd	-0.038459588
101	0xbe37bcac	-0.17943066
102	0x3d6bf645	0.057607908
103	0x3c978a7c	0.018498652
104	0x3de94041	0.113892086
105	0xbd75f101	-0.060044292
106	0xbe0386b8	-0.1284436
107	0xbe635812	-0.22201565
108	0x3c293c5d	0.010329333
109	0xbb5cd956	-0.0033698878
110	0x3e2556b8	0.16146362
111	0xbd994055	-0.074829735
112	0xbcbd55ac	-0.02311214
113	0xbe51dd0d	-0.2049448
114	0x3d18aa74	0.03727193
115	0x3d8329c7	0.06404453
116	0x3cc7a25d	0.024369413
117	0xbe004bab	-0.12528865
118	0x3df55296	0.11978643
119	0x3db12a94	0.08650699
120	0xbe7bb16c	-0.245794
121	0x3dd650c6	0.10464625
122	0x3e9051e8	0.2818749
123	0xbd72fc94	-0.05932291
124	0xbd0bc7de	-0.034126155
125	0xbe275d92	-0.16344288
126	0xbd95eaea	-0.07320197
127	0x3c87e848	0.016590253
128	0xbd92d2a1	-0.071690805
129	0x3da99144	0.0827966
130	0xbe4c507a	-0.19952574
131	0x3b553573	0.003253308
132	0x3deba98b	0.11506947
133	0xbe13264b	-0.14370076
134	0x3c4013a3	0.011723432
135	0x3e31c4bd	0.17360206
136	0x3d8fc95c	0.07020828
137	0x3e6c6f80	0.23089409
138	0x3ec7d5bd	0.39030257
139	0xbddabdfa	-0.106807664
140	0x3c168fbd	0.009189543
141	0xbe1f8f3c	-0.15581983
142	0x3e4bd2f3	0.1990469
143	0xbdd1facc	-0.10252914
144	0x3dd7a863	0.10530164
145	0xbcae5168	-0.021279052
146	0x3e284de3	0.16435961
147	0x3d9a5d2f	0.075373046
148	0x3e32dccb	0.17467038
149	0xbe4fecfb	-0.20305245
150	0xbe1177bd	-0.14205833
151	0xbe0c88ee	-0.1372411
152	0x3dd3c570	0.103403926
153	0x3d58fc9f	0.052975293
154	0x3e44d4ec	0.19221848
155	0x3c868988	0.016423002
156	0xbe3328c0	-0.17496014
157	0xbde0bc8d	-0.10973463
158	0x3d6c428e	0.05768066
159	0x3e017547	0.12642394
160	0x3e1a934e	0.15095255
161	0xbe27aa61	-0.16373588
162	0x3d990fe8	0.07473737
163	0xbd209e8f	-0.039213713
164	0xbdb7bf40	-0.08972025
165	0xbe53ccdb	-0.20683615
166	0x3ce47ab6	0.027890544
167	0x3c5b4ec8	0.013385482
168	0xbe08b405	-0.13349922
169	0xbe0d9725	-0.13827188
170	0x3dd882ba	0.10571809
171	0xbe64d95b	-0.2234854
172	0xbe0aedd2	-0.13567284
173	0x3e1479c9	0.14499582
174	0xbd737d14	-0.059445456
175	0x3df81a42	0.12114383
176	0x3e92d527	0.28678247
177	0x3e5eba26	0.21750697
178	0x3d5a18a0	0.05324614
179	0x3d26b44e	0.040699296
180	0xbd5b5809	-0.053550754
181	0xbcad8762	-0.02118272
182	0xbe49f28c	-0.1972143
183	0xbe38fbf6	-0.18064865
184	0xbe744644	-0.23854929
185	0xbd212854	-0.0393451
186	0xbe2ade35	-0.16686328
187	0xbd7e96ae	-0.062155418
188	0x3dc383b5	0.095466055
189	0x3e4f2762	0.20229867
190	0xbcd18734	-0.025577165
191	0xbc715920	-0.014730722
192	0x3d896b0e	0.06709872
193	0x3db524d1	0.08844913
194	0xbcda0f84	-0.026618727
195	0x3e607695	0.21920235
196	0xbdf36f50	-0.118864655
197	0xbe80e7c2	-0.25176817
198	0x3e11b667	0.14229737
199	0xbc785fd0	-0.015159562
200	0xbcd5411b	-0.026032021
201	0x3d3b40d0	0.045716107
202	0xbb5adca4	-0.0033395672
203	0xbda60d49	-0.08108003
204	0xbbc177d7	-0.0059041786
205	0xbe5ccd23	-0.21562628
206	0x3dceba08	0.100940764
207	0x3e78565a	0.2425169
208	0x3d3ff516	0.04686459
209	0x3da5f137	0.08102649
210	0x3e2bb182	0.16766933
211	0x3e5bea72	0.21476153
212	0xbd8f8716	-0.070081875
213	0x3d075939	0.033044074
214	0xbd206f4b	-0.039168637
215	0x3e5fa319	0.2183956
216	0x3e42131e	0.18952605
217	0xbd5f3551	-0.054494206
218	0x3e4d598f	0.20053695
219	0xbbffd8cc	-0.0078078266
220	0x3e472f50	0.19451642
221	0x3e161767	0.14657365
222	0x3e1c2ac7	0.15250693
223	0x3e16e1f8	0.14734638
224	0x3d989cbc	0.0745177
225	0xbd855de5	-0.065120496
226	0xbda7a87b	-0.08186432
227	0xbe35d5f0	-0.17757392
228	0xbe43db23	-0.19126563
229	0xbcf58811	-0.029972108
230	0x3ced8d2d	0.028997982
231	0xbe321d88	-0.17394078
232	0x3dae102b	0.084991775
233	0x3e0f4a55	0.13993199
234	0xbe1d1e95	-0.15343697
235	0x3d8f905f	0.070099585
236	0x3c11934f	0.008885219
237	0xbe624614	-0.22097045
238	0x3e89b7ab	0.2689794
239	0x3e96c1be	0.2944469
240	0x3e1c2ee1	0.15252258
241	0xbe509a64	-0.20371395
242	0x3d77835a	0.060428
243	0xbe81dc1d	-0.25363246
244	0x3e814f57	0.25255844
245	0xbcd47acd	-0.025937462
246	0xbe625b9a	-0.22105256
247	0xbdf4e051	-0.119568475
248	0x3d5db723	0.05412973
249	0xbe62c85e	-0.22146747
250	0x3da8d4b9	0.082436986
251	0x3d5eb57f	0.054372307
252	0x3e01396f	0.12619565
253	0xbd82e5df	-0.06391501
254	0xbe46783c	-0.19381803
255	0x3d30025d	0.042971004

layers.0.bias f4 [512]
0	0xbe1b315c	-0.15155548
1	0xbe613fc6	-0.21996984
2	0x3d3fcf48	0.04682854
3	0x3dde99fd	0.10869215
4	0xbe8bc1f5	-0.27296415
5	0xbdab4547	-0.08362823
6	0xbeaec640	-0.34135628
7	0xbe3505aa	-0.17677942
8	0xbe034753	-0.12820177
9	0x3dde170e	0.10844241
10	0x3dd7d212	0.105381146
11	0xbda55923	-0.08073642
12	0x3d8115db	0.06302997
13	0x3cf60e69	0.030036168
14	0x3e05a8b8	0.13052642
15	0x3e19c31b	0.15015833
16	0x3d182eef	0.037154134
17	0x3d3cdd23	0.04610933
18	0x3e2678bd	0.16256995
19	0x3c825020	0.015907347
20	0x3cdf9430	0.027292341
21	0x3e2706cd	0.16311188
22	0x3e33216d	0.1749322
23	0xbe04bbd1	-0.12962271
24	0xbe5d63cf	-0.21620105
25	0xbe428706	-0.1899682
26	0xbe868cdc	-0.26279342
27	0xbe9c2a2a	-0.3050092
28	0xbe746802	-0.23867801
29	0xbb922fac	-0.0044612493
30	0xbbe61c26	-0.0070223985
31	0xbe6e2e3d	-0.23259826
32	0xbded42c6	-0.11585002
33	0xbe132651	-0.14370085
34	0xbe79ec66	-0.24406585
35	0x3ce3101a	0.027717639
36	0xbdc3a867	-0.095536046
37	0x3e074e57	0.13213478
38	0xbd413c8d	-0.047176886
39	0xbcc8586c	-0.024456225
40	0xbe2e21dd	-0.17005105
41	0x3e37ff89	0.17968573
42	0xbe38938d	-0.18025036
43	0xbdeacd73	-0.114649676
44	0x3e842da9	0.25816086
45	0xbe5391e1	-0.20661117
46	0xbe6e7a13	-0.23288755
47	0x3e4bf294	0.19916755
48	0xbe6900eb	-0.22754256
49	0xbe4d84b5	-0.20070155
50	0x3d8fb2fb	0.0701656
51	0xbc9dd676	-0.019267302
52	0xbd445750	-0.04793483
53	0x3cd46256	0.025925796
54	0xbd0ea937	-0.034829345
55	0x3cb1f2a2	0.021722142
56	0xbd58ac9d	-0.05289899
57	0xbe0c81be	-0.13721368
58	0xbe5719c0	-0.21005917
59	0xbe740950	-0.23831677
60	0x3e698543	0.22804742
61	0xbe4b888e	-0.1987631
62	0xbe68fc6f	-0.22752546
63	0xbdfa2e81	-0.12215901
64	0xbe184484	-0.14869887
65	0xbe465ca9	-0.19371285
66	0xbe759d11	-0.23985697
67	0xbe158738	-0.14602363
68	0xbde67708	-0.11253172
69	0xbde2dde1	-0.11077476
70	0xbe82e507	-0.2556536
71	0xbe8cff67	-0.27538607
72	0x3e2bb3e4	0.16767842
73	0xbe9d35cc	-0.30705106
74	0xbe85374c	-0.2601875
75	0xbe78d3a3	-0.24299483
76	0xbe5dd58c	-0.21663493
77	0xbe6538b7	-0.22384916
78	0xbde41059	-0.111359306
79	0xbe9a5104	-0.30139935
80	0x3bb8da68	0.0056412704
81	0xbe2300cd	-0.15918274
82	0xbe90a027	-0.28247187
83	0xbd82fa00	-0.0639534
84	0xbe6ad912	-0.22934368
85	0x3dad5942	0.0846429
86	0xbe5b161e	-0.21395156
87	0xbe66c6de	-0.225368
88	0x3d9d4e1b	0.07680913
89	0x3e271958	0.16318262
90	0x3de86e9f	0.11349224
91	0xbea8cb7d	-0.3296775
92	0xbe9b337d	-0.3031272
93	0x3d841efc	0.06451222
94	0xbe1a7cfd	-0.15086742
95	0xbd699322	-0.057025082
96	0xbd8c0839	-0.06837506
97	0x3bad37c5	0.0052861893
98	0xbd811b1f	-0.06304001
99	0xbdba9d28	-0.091120064
100	0xbe5ad265	-0.21369322
101	0xbe603036	-0.21893391
102	0xbe0cad99	-0.13738097
103	0x3d6162b5	0.055025775
104	0xbe99edbf	-0.30064198
105	0x3e479b95	0.19492944
106	0x3d3c29d0	0.045938313
107	0xbe39c703	-0.18142323
108	0xbc5dfa05	-0.013548379
109	0x3e63ee93	0.22258978
110	0xbe356dc1	-0.17717649
111	0xbe5ceca1	-0.21574642
112	0x3e595732	0.21224669
113	0xbe058355	-0.1303838
114	0x3c1a5bea	0.009421328
115	0xbe36961f	-0.17830704
116	0xbd05649d	-0.032566655
117	0xbe6f6945	-0.23380001
118	0x3d6e7898	0.058220476
119	0x3d192e0d	0.037397433
120	0xbe9f8717	-0.31157753
121	0xbe05fca2	-0.13084653
122	0xbe7fe4f3	-0.24989681
123	0xbe1b81a2	-0.1518617
124	0xbe283e3f	-0.16429995
125	0x3e1128ee	0.1417577
126	0xbc79726f	-0.015225037
127	0xbb95f461	-0.0045762514
128	0xbb884f44	-0.00415984
129	0x3d00957b	0.031392556
130	0xbe60b450	-0.21943784
131	0x3d4ad0b6	0.04951545
132	0xbe64f951	-0.22360732
133	0xbe7fec1f	-0.24992417
134	0xbe39722b	-0.18109958
135	0xbe15a125	-0.14612253
136	0xbd5a60e0	-0.053315043
137	0xbdb99740	-0.09062052
138	0xbe750c2f	-0.23930429
139	0xbe816d3d	-0.25278655
140	0xbe8ba5c9	-0.27274922
141	0x3d5a6afa	0.053324677
142	0xbe720209	-0.23633589
143	0xbe7ce82e	-0.24697945
144	0x3d901ea4	0.07037094
145	0xbddd58d3	-0.108079575
146	0xbe660c9a	-0.22465745
147	0xbe8546d0	-0.26030588
148	0x3e0ac723	0.13552527
149	0x3c25207d	0.010078547
150	0xbd8629be	-0.065509304
151	0x3e124c17	0.14286838
152	0xbe5e165a	-0.21688214
153	0xbe620f09	-0.22076048
154	0xbe7a0503	-0.24415974
155	0xbe66a78d	-0.22524853
156	0xbd939c3d	-0.072075345
157	0xbe1f0cdb	-0.15532248
158	0xbe8073df	-0.25088403
159	0xbd29d3b4	-0.04146166
160	0xbea05d51	-0.31321195
161	0xbd9ee4bf	-0.077584736
162	0xbdaa0dd4	-0.08303419
163	0xbe518a43	-0.20462899
164	0xbd27aebc	-0.040938124
165	0xbe878c4f	-0.26474234
166	0xbe3a60f2	-0.18201044
167	0x3bd43df0	0.00647711
168	0xbe8f1430	-0.2794509
169	0xbe140016	-0.14453158
170	0xbdb86f42	-0.09005596
171	0x3da7004b	0.08154353
172	0xbe9a5e1a	-0.3014992
173	0xbe3580dc	-0.17724937
174	0xbd226701	-0.039649013
175	0x3c9925a1	0.0186947
176	0xbe40afb5	-0.18817027
177	0xbb1b189a	-0.0023665787
178	0xbe59bcb1	-0.21263386
179	0xbe0915c9	-0.13387217
180	0xbe41232d	-0.18861075
181	0xbe00c43e	-0.1257486
182	0xbe064e3c	-0.13115782
183	0x3d480531	0.048833076
184	0xbe348415	-0.1762851
185	0xbeb16171	-0.34644654
186	0xbe680281	-0.22657205
187	0xbdebfa03	-0.11522295
188	0xbe1000de	-0.14062831
189	0xbd9e5554	-0.07731119
190	0x3d09b5a1	0.03362048
191	0xbe763b5c	-0.24046081
192	0x3da2c9eb	0.07948669
193	0xbcd8a849	-0.026447432
194	0x3e8a9ec5	0.27074257
195	0xbe87d676	-0.26530808
196	0x3de1d3fd	0.11026762
197	0x3db66e37	0.089077406
198	0xbdb67b40	-0.08910227
199	0x3e45b7dc	0.19308418
200	0xbe78685f	-0.24258564
201	0x3e003d15	0.12523301
202	0xbd9c2ff7	-0.07626336
203	0xbe024d0c	-0.12724704
204	0xbe0a07e7	-0.13479577
205	0xbe91c7c2	-0.28472716
206	0xbe87cd18	-0.26523662
207	0xbd8af909	-0.06785781
208	0xbdf28399	-0.118415065
209	0xbe735d54	-0.2376607
210	0x3e0ecff8	0.13946521
211	0x3d41299b	0.04715882
212	0xbe4f36bb	-0.20235722
213	0xbe00d796	-0.1258224
214	0xbe6c89ff	-0.23099516
215	0x3d0befed	0.034164358
216	0x3e550df4	0.20806104
217	0xbdece16b	-0.115664326
218	0x3d7324a9	0.059361134
219	0xbe0f12eb	-0.1397206
220	0xbe80ae5f	-0.25133035
221	0x3c0fea44	0.008783881
222	0xbaa7f618	-0.001281443
223	0xbe897b39	-0.26851824
224	0xbd79b648	-0.060964853
225	0xbe5d0324	-0.2158323
226	0xbd52b808	-0.051445037
227	0x3d3e15e5	0.0464076
228	0x3c94c9a0	0.018162549
229	0x3dd52805	0.10408024
230	0xbd6c4773	-0.057685327
231	0xbe615bf1	-0.22007729
232	0x3d8c678b	0.06855687
233	0xbc831d47	-0.016005171
234	0x3c7e0ed0	0.015506461
235	0xbd849afb	-0.06474873
236	0xbd8ce501	-0.068796165
237	0xbe74a28a	-0.23890129
238	0x3e0f724b	0.14008443
239	0xbe4e06b7	-0.20119749
240	0xbdf9a633	-0.12189903
241	0xbe6f1f66	-0.23351821
242	0xbe8f2848	-0.2796042
243	0xbe785847	-0.24252425
244	0xbd217535	-0.039418418
245	0xbe88133b	-0.26577172
246	0xbe23825f	-0.15967701
247	0xbe35084c	-0.17678946
248	0xbe9a18aa	-0.30096942
249	0xbe4b4907	-0.19852076
250	0xbdd41bda	-0.10356875
251	0xbde89e61	-0.113583334
252	0xbe361aa3	-0.17783599
253	0xbe9059f2	-0.28193623
254	0xbe9fbfcd	-0.3120102
255	0xbe70f150	-0.23529553

layers.2.weight f4 [256, 512]
0	0xbd2f2207	-0.04275706
1	0xbccf5eaa	-0.025313694
2	0xbc0a7b9d	-0.008452323
3	0xbc027f1f	-0.007964878
4	0xbd2b71fb	-0.041856747
5	0x39899b8c	0.00026246568
6	0x3d03d9b4	0.03219004
7	0xbdcc6f9c	-0.09982225
8	0xbe0b18c1	-0.13583662
9	0x3c2303b9	0.009949618
10	0x3c0bcc10	0.008532539
11	0xbd19ea7f	-0.03757715
12	0xbd3ba666	-0.045812987
13	0xbc05071c	-0.008119371
14	0x3dc9cd78	0.09853643
15	0x3c9967c5	0.018726239
16	0x3d7312cc	0.059344098
17	0xbde67b97	-0.11254042
18	0xbd54e1f6	-0.051973306
19	0xbd97fac6	-0.07420878
20	0xbdc96480	-0.09833622
21	0x3c19dc15	0.009390851
22	0x3cfa2342	0.03053439
23	0x3cc435cb	0.023951432
24	0x3ce22280	0.027604342
25	0xbe39b915	-0.1813701
26	0xbe3dbccb	-0.1852905
27	0xbe5218de	-0.20517299
28	0xbda7b80f	-0.08189403
29	0xbcb5d2a1	-0.022195162
30	0xbcfd8334	-0.030946352
31	0xbc01ccb3	-0.007922339
32	0xbd083f74	-0.03326364
33	0xbde2d64d	-0.11076031
34	0x3da05c1a	0.07830067
35	0xbdafd48e	-0.085854635
36	0x3cda7921	0.026669087
37	0x3d0226d0	0.031775296
38	0xbd978481	-0.0739832
39	0x3dbb5e1b	0.091488086
40	0x3c70745c	0.01467618
41	0xbd3aa872	-0.0455708
42	0xbc71c0d5	-0.014755447
43	0xbdfdd65e	-0.12394403
44	0xbc2824cf	-0.010262682
45	0x3cd09179	0.025459992
46	0x3dbcd569	0.09220392
47	0x3ce75648	0.028239384
48	0xbe2b93b6	-0.16755566
49	0xbe02db58	-0.12778986
50	0x3daf0c03	0.08547213
51	0x3b5abd10	0.003337685
52	0xbd75010b	-0.059815448
53	0x3d52568e	0.051352076
54	0xbd9b43cb	-0.0758129
55	0x3c9eb57f	0.019373653
56	0xbcc19bad	-0.023633802
57	0xbdb88d62	-0.09011342
58	0x3d310616	0.043218695
59	0xbd337734	-0.043814853
60	0x3d41ceab	0.047316235
61	0xbe5dc686	-0.21657762
62	0xbc054c7a	-0.008135909
63	0xbdd7fde3	-0.10546472
64	0xbd942724	-0.07234028
65	0xbc81eca9	-0.015859919
66	0x3e04ddd2	0.12975243
67	0xbdf0cde0	-0.117580175
68	0xbd9bead8	-0.07613152
69	0xbc64ebb8	-0.013972215
70	0xb96048ec	-0.0002138947
71	0xbe1b40dc	-0.1516146
72	0xbdd380ab	-0.10327276
73	0xbd7761c6	-0.06039598
74	0xbd93ebcc	-0.07222709
75	0xbdaa9e6c	-0.08330998
76	0x3de48b4f	0.111593835
77	0x3d666410	0.05624777
78	0xbdedb36f	-0.1160649
79	0xbe5e214a	-0.21692386
80	0x3b7604a5	0.003753939
81	0xbe5c1c92	-0.21495274
82	0xbd619e38	-0.05508253
83	0xbc9bf5a1	-0.019038023
84	0x3d96d246	0.07364325
85	0x3cf77cf3	0.030210948
86	0xbcab606d	-0.020920003
87	0xbd9af455	-0.07566134
88	0xbda593ac	-0.08084807
89	0xbd94aa91	-0.072590955
90	0xbd99b7c5	-0.075057544
91	0xbdf26823	-0.11836269
92	0xbd7feab5	-0.062479693
93	0xbd826fbd	-0.06368969
94	0x3bb2fb4a	0.005462085
95	0x3d1ff729	0.03905407
96	0x3d2fbacf	0.042902764
97	0xbd7c3a3f	-0.061578985
98	0x3c7446b9	0.01490944
99	0xbded8579	-0.115977235
100	0xbbd564e5	-0.0065122717
101	0x3d29e733	0.041480254
102	0x3d8b7fc7	0.06811481
103	0xbd43c443	-0.04779459
104	0xbd53d953	-0.05172093
105	0x3d798c34	0.060924724
106	0x3cbe9854	0.023265995
107	0x3d87d568	0.06632501
108	0x3d276c7e	0.04087495
109	0x3dbfd1d2	0.09366192
110	0xbd2adffe	-0.04171752
111	0x3d948f72	0.072539225
112	0x3d033931	0.032036964
113	0xbd490606	-0.04907801
114	0xbd537514	-0.051625326
115	0x3d963ffc	0.07336423
116	0xbd529fb2	-0.05142183
117	0xbe3d0383	-0.18458371
118	0x3cc4c01e	0.02401739
119	0x3c6ddb36	0.014517596
120	0xbe20d963	-0.15707926
121	0xbd1b5d75	-0.037930924
122	0xbdf7cf7e	-0.12100123
123	0xbc217bd1	-0.00985618
124	0x3c3e27e8	0.011606194
125	0xbc572413	-0.013131159
126	0xbe113e99	-0.14184035
127	0x3d219728	0.039450794
128	0xbd891fe3	-0.06695535
129	0xbd38ea68	-0.045145422
130	0xbdca25b8	-0.098704755
131	0x3b9384e3	0.0045019253
132	0x3d3f0408	0.046634704
133	0x3d92dce3	0.07171037
134	0xbb965da5	-0.0045888
135	0xbdefb79b	-0.11704942
136	0xbcb57b69	-0.022153573
137	0xbcc094a0	-0.02350837
138	0x3df72ba6	0.12068872
139	0x3d85dc7e	0.06536196
140	0x3d62100e	0.055191092
141	0xbca64f7b	-0.020301571
142	0x3c72161e	0.014775781
143	0xbe1ed142	-0.15509513
144	0xbcc7fa8f	-0.024411468
145	0x3cba4d59	0.02274196
146	0x3c1e07a7	0.009645379
147	0xbdc8bd14	-0.09801689
148	0x3d821dd8	0.063533485
149	0xbd00498b	-0.031320136
150	0x3d549404	0.05189897
151	0xbc61149e	-0.013737826
152	0xbe08a787	-0.13345157
153	0x3e28d434	0.16487199
154	0x3da7cd0d	0.08193407
155	0xbe4fdae4	-0.20298344
156	0xbc38a29a	-0.011269236
157	0xbc3ed487	-0.01164735
158	0xbd229612	-0.0396939
159	0xbcbe028b	-0.023194572
160	0xbd85c34b	-0.0653139
161	0xbd85a475	-0.06525508
162	0x3d13a7ff	0.036048885
163	0xbd8a06f6	-0.06739609
164	0xbd163879	-0.03667495
165	0xbe0083cd	-0.12550278
166	0xbd83cdd0	-0.0643574
167	0x3c8ebf0f	0.017425088
168	0x3c2f665e	0.010705559
169	0xbdc668ea	-0.096879795
170	0xbd8e5ccb	-0.069512926
171	0xbd53b937	-0.051690307
172	0xbce11ac6	-0.027478587
173	0xbdd6cc5b	-0.104881965
174	0xbce0b112	-0.027428184
175	0xbcf12ff1	-0.029441806
176	0xbdb66bc7	-0.08907276
177	0x3ca2e3b3	0.019883966
178	0xbe12d14f	-0.14337657
179	0x3d920eb8	0.07131714
180	0x3dca8f9d	0.09890673
181	0xbe13ef0b	-0.14446656
182	0x3dcef3ac	0.101050705
183	0x3c98b19a	0.018639375
184	0x3d0d824c	0.03454809
185	0x3cd10a5e	0.025517639
186	0x3d9e7fa1	0.07739187
187	0x3ba51052	0.005037346
188	0x3d83d4d5	0.06437079
189	0x3c90091f	0.017582474
190	0xbc832f54	-0.016013779
191	0xbc726751	-0.01479514
192	0xbd13f77f	-0.036124703
193	0x3d017021	0.031601075
194	0xbcd5a8a1	-0.026081385
195	0x3df9acbb	0.12191149
196	0x3d0a555f	0.033772822
197	0x3d83de9c	0.06438944
198	0x3d27834c	0.0408967
199	0xbc8a75ec	-0.016901933
200	0xbd51561d	-0.051107515
201	0x3d803c03	0.06261446
202	0xbd3b2193	-0.045686316
203	0xbd4c56de	-0.04988753
204	0x3d32ade4	0.043622866
205	0x3e191f4c	0.14953345
206	0x3e14d2f6	0.145336
207	0x3d25e4ce	0.04050141
208	0x3bd17409	0.0063920063
209	0x3df42f8b	0.119231306
210	0xbdb8a011	-0.09014905
211	0x3c4e0868	0.012575246
212	0xbc359ff7	-0.011085502
213	0xbdbd4ced	-0.09243188
214	0x3d755b3b	0.059901457
215	0x3d4f0227	0.050539162
216	0xbdaa22b4	-0.083074
217	0xbdfc8c8e	-0.12331496
218	0xbd4e1a18	-0.050317854
219	0x3cf73c99	0.030180262
220	0x3e3d970e	0.18514654
221	0xbdfcf1e6	-0.12350826
222	0xbdf074c9	-0.11741025
223	0x3d82d66c	0.06388554
224	0x3bc4de19	0.0060079214
225	0xbe287c6b	-0.16453712
226	0xbd5e1114	-0.054215506
227	0xbc9d8325	-0.019227574
228	0x3d3bcab6	0.045847617
229	0xbd251369	-0.040301714
230	0xbcf66f9e	-0.03008252
231	0xbe0467c2	-0.12930205
232	0xbd53d340	-0.051715136
233	0xbca6effc	-0.020378105
234	0xbc424ad8	-0.011858664
235	0xbd44d756	-0.048056923
236	0xbcf5d602	-0.030009273
237	0x3dee3943	0.116320156
238	0x3d65e227	0.05612388
239	0x3deadeab	0.11468252
240	0x3cc5d9f4	0.02415178
241	0xbe32af9e	-0.17449805
242	0xbe2c9ee2	-0.16857484
243	0x3db7ad9e	0.08968662
244	0xbd075d48	-0.033047944
245	0xbe3a681c	-0.18203777
246	0x3dd3e455	0.10346285
247	0x3e0adb4a	0.13560215
248	0xbe298cee	-0.16557667
249	0xbd7746ed	-0.060370374
250	0x3d553013	0.0520478
251	0xbc46e877	-0.012140385
252	0x3e0b8a88	0.13627064
253	0xbccfec18	-0.025381133
254	0xbd50b5db	-0.05095468
255	0x3c23a2c9	0.0099875415

layers.2.bias f4 [256]
0	0xbc4393fd	-0.011937139
1	0xbc4a29df	-0.012339084
2	0x3d785c1c	0.060634717
3	0xbcd0e8c0	-0.025501609
4	0xbc549b29	-0.012976446
5	0xbd13a72e	-0.036048107
6	0xbd085650	-0.03328544
7	0x3d5e911b	0.054337602
8	0xbc74f023	-0.014949831
9	0x3c5c477f	0.01344478
10	0x3ce260f3	0.02763412
11	0x3d20e08e	0.039276652
12	0x3d17c3f7	0.03705212
13	0x3c2e401b	0.010635401
14	0xbcba6551	-0.02275339
15	0x3cea8b82	0.028630976
16	0x3d06b8f7	0.03289124
17	0xbc70f294	-0.014706273
18	0xbc4f9805	-0.012670522
19	0x3cb2de5d	0.021834547
20	0x3d105ab1	0.03524274
21	0xbba6b372	-0.0050873095
22	0x3b9d674e	0.0048035746
23	0xbabdd6ec	-0.0014483607
24	0x3dbcb0e4	0.09213427
25	0x3d100ca5	0.03516831
26	0xbdbdcd7c	-0.09267709
27	0x3d0565f2	0.032567926
28	0x3c268105	0.010162597
29	0x3db36cf7	0.08761018
30	0xbb8a48eb	-0.0042201183
31	0x3d9ac967	0.07557946
32	0xbc41ce4a	-0.011828968
33	0x3d3e2bc7	0.046428468
34	0x3d9d7bd9	0.07689638
35	0xbd39d28a	-0.0453668
36	0xbb157329	-0.0022804237
37	0x3c341ba3	0.010992917
38	0x3ce43196	0.027855676
39	0xbbd634da	-0.006537062
40	0xbb9bdfe0	-0.0047569126
41	0xbd496b80	-0.049174786
42	0xbc27dc19	-0.010245346
43	0x3b09ba9b	0.0021015767
44	0x3d173101	0.03691197
45	0x3d50478d	0.050849486
46	0xbce62723	-0.028094834
47	0x3d59b9f7	0.053155866
48	0x3a1d2c45	0.00059956714
49	0xbd259fd8	-0.040435642
50	0x3caa2f3f	0.020774482
51	0xbd70906b	-0.058731478
52	0xbc7bed69	-0.015376427
53	0x3cd44b8e	0.025914934
54	0xbc522e4c	-0.012828421
55	0x3d97a506	0.074045226
56	0x3c7592ea	0.01498864
57	0x3c308852	0.010774689
58	0x3d080df1	0.03321642
59	0xbc985f52	-0.01860014
60	0xbd119d55	-0.035550434
61	0xbcaf44fe	-0.021395203
62	0x3cc65ca9	0.024214106
63	0x3b8e547c	0.0043435674
64	0x3d8c23c0	0.06842756
65	0xbbc2f848	-0.0059500076
66	0x3c3582ea	0.011078576
67	0x3d8a8592	0.06763758
68	0xbb4d3ecf	-0.0031317954
69	0xbc9daf6f	-0.019248692
70	0xbd332c80	-0.04374361
71	0x3d2b321d	0.04179584
72	0xbc4b1956	-0.012396177
73	0x3d5245cb	0.05133609
74	0xbb8affad	-0.0042419047
75	0x3ccc0520	0.024904788
76	0x3cdf0d3a	0.027227987
77	0x3c4647bc	0.012102064
78	0x3d4d9ff3	0.050201368
79	0xbd333c83	-0.04375888
80	0xbd58ff66	-0.052977942
81	0x3c84e4b2	0.016222332
82	0x3d341336	0.043963633
83	0x3c17e571	0.009271012
84	0xbd1386a5	-0.03601708
85	0x3bbb8dbe	0.005723684
86	0x3bf92e94	0.0076044295
87	0x3c7e039d	0.015503791
88	0x3d571dc1	0.05251861
89	0xbd407a8e	-0.046991877
90	0xbadd3d74	-0.0016879276
91	0x3c9d582a	0.019207079
92	0xbca57bd6	-0.020200651
93	0xbd1ec539	-0.038762305
94	0x3d6f84ef	0.058476385
95	0xba3f0427	-0.00072866905
96	0xbd1750fe	-0.036942475
97	0x3b99a0f6	0.0046883775
98	0x3c9f6f28	0.019462183
99	0x3cee300a	0.029075641
100	0x3cb11f8c	0.021621488
101	0xbd448098	-0.0479742
102	0x3db1f91d	0.08690093
103	0x3c8045e0	0.015658319
104	0x3ce74efd	0.028235907
105	0x3c947707	0.018123163
106	0x3cb23f95	0.021758834
107	0xbd3892cf	-0.045061883
108	0x3b10eb3c	0.0022112867
109	0xbc5a5eb6	-0.013328245
110	0xbd9a5527	-0.07535773
111	0x3d20bde5	0.039243598
112	0x3d57772e	0.052603893
113	0xbd0cec92	-0.0344053
114	0x3ca119ad	0.019665563
115	0x3cbb93ac	0.022897564
116	0x3d165de8	0.03671065
117	0x3d7bef70	0.061507642
118	0xb97aa7c9	-0.00023904363
119	0xbd4598e3	-0.048241507
120	0x3da1a1da	0.07892199
121	0x3c31135e	0.01080784
122	0x3d0409ab	0.032235783
123	0x3ccb34b4	0.024805404
124	0x3c1446c5	0.009050076
125	0x3c6737ef	0.014112457
126	0x3cf1b027	0.029502941
127	0x3ca5a475	0.02022002
128	0xbcf54e0f	-0.029944448
129	0xbc950a03	-0.01819325
130	0xbcc1d20d	-0.02365973
131	0xbd2314c9	-0.039814744
132	0x3c0c034f	0.008545711
133	0x3a938e95	0.0011257703
134	0x3b6885f2	0.0035480228
135	0xbd2576d6	-0.040396534
136	0x3dc69253	0.09695878
137	0xbd58b226	-0.05290427
138	0xbca833de	-0.020532545
139	0x3c170447	0.009217328
140	0xbd440efa	-0.047865845
141	0xbb089ab8	-0.0020844173
142	0x3cfd3cfa	0.030912865
143	0x3d49fa4e	0.049310975
144	0x3d12c5d3	0.03583319
145	0xbbc85b67	-0.0061144116
146	0x3d02456d	0.03180449
147	0x3d857859	0.06517095
148	0xbd11a88a	-0.035561122
149	0x3c9f8939	0.019474613
150	0xbd3b7fc6	-0.04577615
151	0xbd2860b3	-0.041107845
152	0x3d06a3f9	0.03287122
153	0x3ce3a16c	0.027786933
154	0x3ba66498	0.0050779097
155	0xbd074960	-0.03302896
156	0xbca14f68	-0.019691184
157	0xbced075f	-0.028934179
158	0x3c437c6f	0.011931523
159	0x3c151354	0.009098846
160	0xbb813e13	-0.0039441674
161	0xbcff07eb	-0.031131705
162	0x3cf9baa9	0.030484514
163	0xbd85c5b0	-0.065318465
164	0x39a96962	0.00032312708
165	0x3c0dfe8a	0.008666644
166	0x3b6f1caa	0.003648559
167	0x3ce0d30f	0.02744439
168	0x3cc0b900	0.023525715
169	0x3bc98e91	0.0061510284
170	0x3bb57a6b	0.005538275
171	0x3cfcee7f	0.030875443
172	0x3cae387d	0.02126717
173	0x3d059adc	0.03261839
174	0x3bb409b9	0.005494323
175	0x3ca87157	0.020561857
176	0xbd00be24	-0.031431332
177	0x3d2fd4a4	0.0429274
178	0x3bbaae85	0.005697074
179	0xbcb3f4db	-0.021967342
180	0x3d2fc571	0.042912904
181	0x3cc97c8b	0.02459552
182	0x3b5f02ad	0.0034028694
183	0x3c91988a	0.017772932
184	0xbd62a456	-0.055332504
185	0xbced4739	-0.028964626
186	0xbd0c9927	-0.034325745
187	0xbc7793b7	-0.015110902
188	0xbc5f3ce6	-0.013625359
189	0xbcb09fb5	-0.02156053
190	0x3d83a08d	0.06427107
191	0xbd0c420e	-0.034242682
192	0xbcbf5938	-0.023357973
193	0x3d1e7c11	0.038692538
194	0x3c5c6143	0.013450923
195	0x3bfca545	0.0077101314
196	0x3d858b29	0.06520683
197	0x3c42e9fc	0.011896607
198	0xbd395bb9	-0.04525349
199	0x3d0dcb92	0.034617968
200	0x3d3fa0c0	0.046784163
201	0xbd4a9a5b	-0.04946361
202	0x3c0f5362	0.008747907
203	0x3b32d67d	0.002728849
204	0xbc6567eb	-0.014001827
205	0xbceece1d	-0.029151017
206	0xbd0cf8a3	-0.034416806
207	0x3d1c043d	0.03808998
208	0x3ba4d20f	0.0050299237
209	0xbc68adb9	-0.014201575
210	0xbd817c00	-0.06322479
211	0x3dbb7574	0.09153262
212	0x3b44c09b	0.0030022028
213	0x3cc386bb	0.023867955
214	0xbc876259	-0.016526388
215	0x3c4926cb	0.012277315
216	0x3d88bc8b	0.06676587
217	0xbd088363	-0.033328425
218	0x3b75e0be	0.003751799
219	0x3ca3be50	0.019988209
220	0x3c6be570	0.014397964
221	0x3c0b04fb	0.008485074
222	0xbd56273f	-0.05228352
223	0x3dbedafb	0.09319111
224	0xbbfa668b	-0.0076416186
225	0x3cef3001	0.029197695
226	0xbd4c0665	-0.049810786
227	0x3ca987f1	0.020694705
228	0xbd42c28d	-0.04754882
229	0x3d74ef2a	0.059798397
230	0xbd26f459	-0.04076037
231	0x3c3c2892	0.011484282
232	0xbc5cb6de	-0.013471333
233	0xbca7c4a9	-0.020479517
234	0xbcec29cf	-0.02882853
235	0x3cb66554	0.022265114
236	0xbce4d1de	-0.027932104
237	0x3bc463bb	0.005993334
238	0x3c7130f4	0.014721144
239	0x3b6b8fe5	0.0035943922
240	0x3c139115	0.009006758
241	0xbd50f513	-0.05101497
242	0xbd3c3085	-0.04594471
243	0xbd3c7333	-0.0460083
244	0x3b8cb88f	0.004294462
245	0xbd3acabf	-0.04560351
246	0x3cf1aae9	0.029500442
247	0xbc3b477a	-0.011430616
248	0x3cb1f5b3	0.021723604
249	0x3c665ff3	0.014060962
250	0x3ca5e42d	0.020250404
251	0x3c1d04f1	0.009583698
252	0x3be5abf2	0.007009023
253	0xbccf03a9	-0.0252703
254	0xba1edfb2	-0.0006060555
255	0x3c5ad593	0.013356584

layers.4.weight f4 [128, 256]
0	0x3d7f0392	0.062259264
1	0xbc1d0387	-0.0095833605
2	0xbd3bb361	-0.045825366
3	0x3c86a23f	0.016434787
4	0x3d0be5de	0.034154765
5	0xbc356476	-0.011071315
6	0xbd1d9860	-0.038475394
7	0xbd428627	-0.04749122
8	0x3d88a5da	0.06672259
9	0xbd3ecf4f	-0.046584424
10	0xbe2c17ac	-0.16805905
11	0x3d827058	0.06369084
12	0xbec4cc58	-0.38437152
13	0xbdfec487	-0.12439828
14	0xbc5ca74a	-0.013467619
15	0xbda94823	-0.08265712
16	0x3c8cdc5e	0.017194923
17	0xbd3d4678	-0.046209782
18	0x3d9e2e99	0.077237315
19	0x3d2cbe14	0.04217346
20	0x3cd04584	0.025423773
21	0xbb970e29	-0.0046098423
22	0x3d68a145	0.056794424
23	0xbcc3630f	-0.023850946
24	0xbd83f4f7	-0.06443208
25	0x3c99241c	0.018693976
26	0x3d01205c	0.031525
27	0x3dbbe8b0	0.09175241
28	0x3ca0fb24	0.019651003
29	0x3d337ee4	0.043822184
30	0xbd678c8f	-0.05653053
31	0xbd6d9a7c	-0.058008656
32	0xbcc362f7	-0.023850901
33	0x3d6868b1	0.056740467
34	0xbc6ff563	-0.014645907
35	0x3d8630ad	0.06552253
36	0x3c846c26	0.01616485
37	0xbe48347b	-0.1955127
38	0xbd416f0b	-0.04722504
39	0xbcb162c8	-0.021653548
40	0xbc95ef2e	-0.018302526
41	0xbd34ef72	-0.044173665
42	0xbd56299e	-0.052285783
43	0xbd86792a	-0.06566079
44	0xbe80ff83	-0.2519494
45	0xbdc02016	-0.0938112
46	0xbe62505f	-0.22100972
47	0xbd61a75b	-0.055091243
48	0xbaf6bea5	-0.0018825127
49	0xbcb3755d	-0.02190655
50	0x3b9ca24d	0.00478009
51	0x3d8f0c38	0.069847524
52	0x3ca62ad2	0.02028409
53	0x3d9a749d	0.075417735
54	0xbcf7a5cc	-0.030230425
55	0xbd5e4ad7	-0.05427059
56	0xbc51ac4d	-0.012797427
57	0xbd7d39ea	-0.06182281
58	0x3ce1afe3	0.02754969
59	0xbd9ae42c	-0.075630516
60	0x3cae3287	0.021264328
61	0xbc9524a0	-0.01820594
62	0xbcf9ee34	-0.030509092
63	0xbc79fd17	-0.015258095
64	0xbd316eea	-0.043318667
65	0x3cba85d8	0.0227689
66	0xbca1c881	-0.019748928
67	0x3d2291f7	0.039689984
68	0xbc865792	-0.016399179
69	0x3d824249	0.06360299
70	0xba827e68	-0.0009955885
71	0x3b04a94b	0.0020242508
72	0xbe0884c9	-0.13331904
73	0x3d5fabb7	0.05460712
74	0xbd55fe1c	-0.05224429
75	0x3d360326	0.044436596
76	0xbbddb629	-0.0067661
77	0xbcc5f32e	-0.024163809
78	0xbce65053	-0.028114473
79	0xbc15312e	-0.009105964
80	0xbd0fd727	-0.035117295
81	0xbd2fa58c	-0.042882487
82	0xbd40816a	-0.04699842
83	0x3e0f6091	0.14001681
84	0xbcfb0852	-0.030643616
85	0xbd268bf7	-0.040660825
86	0xbc9a6178	-0.018845305
87	0xbd3f62c8	-0.046725065
88	0x3d9ea73d	0.07746742
89	0xbce204fb	-0.027590265
90	0x3dd292d6	0.10281913
91	0x3d1954cd	0.037434388
92	0x3d87169b	0.065961085
93	0xbc020f48	-0.007938214
94	0xbc6bce28	-0.014392413
95	0xbd5a42dd	-0.053286422
96	0xbd6fb8b7	-0.058525767
97	0xbca2adee	-0.019858327
98	0xbd595a47	-0.05306461
99	0x3b5763ec	0.0032865955
100	0x3af65bd8	0.0018795682
101	0xbbcbd33f	-0.006220251
102	0x3ce9567e	0.028483626
103	0x3e14a559	0.145162
104	0xbd1fa4ff	-0.038975712
105	0x3ccb3282	0.024804357
106	0xbcc5931a	-0.024117995
107	0xbae9b624	-0.0017830771
108	0xbd4b8d80	-0.04969549
109	0xbc5306c4	-0.012880031
110	0xbd5510f8	-0.052018136
111	0xbe4355d7	-0.19075714
112	0x3d40d899	0.047081564
113	0x3d216776	0.03940531
114	0xbc92cdc8	-0.01792039
115	0xbda64dd2	-0.08120312
116	0x3d5b9a62	0.053614028
117	0xbd26df78	-0.04074046
118	0x3cdb1935	0.026745418
119	0xbc73365c	-0.014844503
120	0x3cae6a1f	0.021290837
121	0xbd8708cd	-0.065934755
122	0x3e0d2c82	0.1378651
123	0xbe79077c	-0.24319261
124	0xbc8bf66c	-0.017085277
125	0x3cad97c4	0.021190532
126	0x3c9877f9	0.018611895
127	0x3d2ae810	0.04172522
128	0xbd45a8d0	-0.048256695
129	0xbc9978d9	-0.018734382
130	0xbcd7a336	-0.026322942
131	0xbd7147d9	-0.05890641
132	0xbd56bf03	-0.052428257
133	0xbe3f5fa8	-0.18688834
134	0xbd0150f1	-0.031571332
135	0xbcefeaa3	-0.029286688
136	0x3d7179e9	0.058954153
137	0xbcb88ddf	-0.022528587
138	0xbd0bfe6d	-0.034178186
139	0x3d791e13	0.060819697
140	0x3cc6270e	0.024188545
141	0x3d4d62b0	0.050142944
142	0x3d553efd	0.052062023
143	0x3cc96963	0.024586385
144	0xbcd0ae1d	-0.025473649
145	0x3b82d57e	0.0039927354
146	0xbe13e43c	-0.14442533
147	0xbd087c65	-0.033321757
148	0x3ce6f4dd	0.028192932
149	0x3cb68b87	0.022283329
150	0xbd0389cc	-0.032113835
151	0x3a8959e6	0.0010479062
152	0xbcd2ca5d	-0.02573126
153	0x3cd77fd2	0.026306067
154	0x3cb9b477	0.02266906
155	0xbd4e4ef0	-0.05036825
156	0x3d2b2e35	0.041792113
157	0x3d17c1b3	0.03704996
158	0xbc9dc4c5	-0.019258866
159	0x3bbd8c1d	0.005784525
160	0xbd34af5d	-0.044112552
161	0xbd5d6a3b	-0.054056387
162	0x3d1d8397	0.038455572
163	0x3c7fda43	0.0156160025
164	0xbd78da67	-0.06075516
165	0xbd093fe9	-0.033508215
166	0x3e5c971e	0.21542022
167	0xbd93817c	-0.072024316
168	0xbd2bfcc0	-0.041989088
169	0xbc183e87	-0.009292251
170	0x3c3e49f5	0.011614312
171	0x3b6cf71d	0.0036158033
172	0x3e51bdd5	0.20482571
173	0x3c5130c0	0.012767971
174	0x3d53a6f2	0.051672883
175	0xbd21375e	-0.039359443
176	0xbcfeaf84	-0.031089552
177	0x3c693483	0.014233711
178	0x3d05a5ae	0.032628708
179	0x3cbfdc3d	0.023420447
180	0xbdcc5e8a	-0.099789694
181	0x3c034bbb	0.008013661
182	0x3d36d1b9	0.0446336
183	0x3d1b9cdd	0.037991393
184	0xba4d3b12	-0.00078289316
185	0x3c815227	0.015786244
186	0xbcced6bc	-0.025248878
187	0x3cf339f8	0.029690728
188	0x3c276200	0.010216236
189	0xbd35702a	-0.04429642
190	0x3cdc52a7	0.02689488
191	0x3d053256	0.032518707
192	0x3ccd0171	0.025025101
193	0xbc4df71c	-0.0125711225
194	0xbbfee3f9	-0.0077786413
195	0x3cb2b948	0.021816865
196	0x3d066a58	0.03281626
197	0xbc992a28	-0.01869686
198	0xbd594f38	-0.053054065
199	0xbd510dc5	-0.051038522
200	0x3d3a5b5e	0.04549729
201	0x3d06f7e3	0.032951247
202	0xbd53997a	-0.05166004
203	0x3cc5d390	0.024148732
204	0x3c642dae	0.0139269065
205	0xbd243f2f	-0.04009932
206	0x3d752b13	0.059855532
207	0xbbbba1e1	-0.0057260846
208	0xbcca0fe7	-0.024665786
209	0xbd964624	-0.07337597
210	0x3d7cf63b	0.06175826
211	0xbd320d73	-0.043469857
212	0xbb8a7394	-0.004225204
213	0x3c587dca	0.013213584
214	0xbd3a5fb9	-0.045501444
215	0xbccf95d0	-0.02533999
216	0xbbafa39b	-0.0053600795
217	0x3d2cd3e3	0.04219426
218	0x3d011c19	0.031520937
219	0x3d2efdef	0.04272264
220	0xbe972889	-0.29523113
221	0x3cf72992	0.03017119
222	0xbd3bd272	-0.045854993
223	0xbd35260d	-0.04422574
224	0xbda1e938	-0.07905811
225	0xbb3e2bf1	-0.002901789
226	0xbd4b4b67	-0.049632456
227	0x3e90e184	0.28297055
228	0xbca74519	-0.02041869
229	0xbd1e4b75	-0.03864618
230	0xbcad2e80	-0.021140337
231	0x3c555704	0.013021234
232	0xbc93a738	-0.018024072
233	0x3cfcd9d4	0.030865587
234	0x3d80eec9	0.06295545
235	0xbd303d50	-0.043027222
236	0xbd7a83f5	-0.061161
237	0x3d7316d2	0.059347935
238	0xbd4dd228	-0.05024925
239	0x3d190bfb	0.03736494
240	0x3b88325b	0.0041563935
241	0xbcec269e	-0.028827008
242	0xbd32e5c6	-0.04367616
243	0x3d19e3ea	0.03757087
244	0xbd80d2d4	-0.06290212
245	0xbd2aec1c	-0.041729078
246	0xbcccd4d7	-0.025003834
247	0x3d11138e	0.03541904
248	0xbdc0f8aa	-0.09422429
249	0xbcfa655b	-0.030565908
250	0x3be7e6f7	0.0070770937
251	0x3c8af7d1	0.016963871
252	0xbc6cd17b	-0.014454241
253	0xbd25bc32	-0.04046268
254	0xbd2c8dc4	-0.042127386
255	0xbd347a8d	-0.044062186

layers.4.bias f4 [128]
0	0x3d10b75b	0.03533111
1	0xbbfbd47c	-0.007685242
2	0x3da240a9	0.07922489
3	0x3dc92394	0.09821239
4	0x3d2f883f	0.042854544
5	0xbd675927	-0.056481507
6	0x3d9cac4c	0.076500505
7	0xbad4edd0	-0.001624519
8	0x3d3cd7d1	0.046104256
9	0xbc559baa	-0.0130376015
10	0x3ca8a17f	0.02058482
11	0x3d1529e7	0.036416914
12	0x3cd98d2e	0.026556578
13	0x3cd0a7c5	0.025470624
14	0xbd49f0d0	-0.049301922
15	0x3d0416d0	0.03224832
16	0x3cc015be	0.023447867
17	0x3ad7a9bf	0.0016453787
18	0xb9e0d646	-0.00042884256
19	0x3d6a5d84	0.05721809
20	0x3dc352f3	0.09537306
21	0xbcc5b7e8	-0.024135545
22	0x3c81ec44	0.01585973
23	0x3ce8cc40	0.028417706
24	0x3d73f685	0.05956127
25	0xbd1ee946	-0.038796686
26	0xbd6810cf	-0.056656655
27	0xbd7d588d	-0.061852027
28	0x3d1f1dc6	0.038846754
29	0xbc83d2c1	-0.016091706
30	0x3caa4258	0.020783588
31	0xbc494cef	-0.012286409
32	0x3dba7922	0.091051355
33	0xbc225b56	-0.0099094715
34	0x3d297598	0.04137191
35	0x3d3f5b6c	0.046718046
36	0xbd47d37f	-0.048785683
37	0x3bb3bb43	0.00548497
38	0x3d45340f	0.04814535
39	0x3bee3fe2	0.007270799
40	0x3b82f368	0.0039963014
41	0x3d79c956	0.060983025
42	0xbc11fdd6	-0.008910617
43	0xbda0b0fb	-0.07846256
44	0x3e038d62	0.12846902
45	0x3e4bdf68	0.19909441
46	0xbd1f4f7b	-0.038894158
47	0x3d22db0e	0.039759688
48	0x3cc438c3	0.023952847
49	0xbb4372ac	-0.0029822988
50	0x3d48fb2b	0.049067657
51	0x3def6044	0.11688283
52	0xbda0b52e	-0.07847057
53	0x3da3656a	0.079783276
54	0x3cba0924	0.022709437
55	0xbcba8895	-0.022770206
56	0xbd0e3650	-0.034719765
57	0xbb0bf39b	-0.0021354917
58	0x3d141636	0.036153995
59	0x3c91ed86	0.017813455
60	0x3d80fcb5	0.062982
61	0x3d98d0a1	0.07461668
62	0xbd043def	-0.032285627
63	0x3c31374a	0.010816405
64	0xbd2e322f	-0.042528328
65	0x3d871a83	0.065968536
66	0x3d68ea97	0.056864347
67	0xbd302502	-0.043004043
68	0x3d7ccd04	0.061718956
69	0xbd1c69c3	-0.0381868
70	0xbcc3a07e	-0.02388024
71	0x3c96d614	0.018412627
72	0x3d34c11c	0.044129476
73	0x3dc8f083	0.09811499
74	0x3d821fd2	0.063537255
75	0x3d81e665	0.063427724
76	0x3d46c817	0.048530664
77	0xbe25ab02	-0.16178516
78	0x3cee3065	0.02907581
79	0xbb550151	-0.0032502005
80	0x3cacad74	0.021078803
81	0x3deba2d2	0.11505665
82	0x3d421d9c	0.04739152
83	0xbbd59f98	-0.006519269
84	0x3e9c190a	0.30487853
85	0xbc96f555	-0.01842753
86	0x3df7fc99	0.12108726
87	0x3c94d1bf	0.018166421
88	0x3d6e1a58	0.058130592
89	0x3d078b37	0.03309175
90	0xbc8baf9b	-0.017051509
91	0x3d99aca1	0.075036295
92	0xbd56b768	-0.052421004
93	0x3d58f8e8	0.05297175
94	0x3c6831e4	0.014172051
95	0xbda33928	-0.07969886
96	0x3da84ad4	0.08217397
97	0x3d5a3909	0.05327705
98	0xbd3affc1	-0.045654062
99	0xbd166507	-0.03671744
100	0xbb6f785d	-0.0036540248
101	0x3d6f0997	0.058358755
102	0xbea2cd0a	-0.31797057
103	0xbd0ccf44	-0.03437735
104	0x3d025147	0.031815793
105	0x3dc4d3dd	0.09610722
106	0x3d315756	0.04329618
107	0x3da2438b	0.07923039
108	0xbdc99996	-0.09843747
109	0x3c3b379b	0.011426832
110	0x3cfb5298	0.030679032
111	0xbd4b2667	-0.04959717
112	0xbcd2dfc2	-0.025741462
113	0x3d801631	0.06254233
114	0x3cf72807	0.030170454
115	0xbdf21335	-0.1182007
116	0x3d95e3bb	0.07318827
117	0xbd1795b3	-0.037008
118	0x3de03cc9	0.10949094
119	0x3d5e513b	0.054276686
120	0x3d6a5b75	0.057216126
121	0xbc9d2050	-0.019180447
122	0x3df4d229	0.11954147
123	0x3dc35336	0.095373556
124	0x3d8f61fa	0.070011094
125	0x3c09bb3a	0.008406455
126	0x3c73374d	0.014844728
127	0xbd4569bc	-0.04819654

layers.6.weight f4 [1, 128]
0	0x3d0340a2	0.03204406
1	0xbc85ca3f	-0.01633179
2	0x3d5ff746	0.054679178
3	0x3d89a1e6	0.06720333
4	0x3d328aaf	0.04358929
5	0xbbaad803	-0.005213739
6	0x3b2ae209	0.002607467
7	0xba3d2911	-0.0007215897
8	0x3d0449ce	0.032296948
9	0x3b6524b3	0.0034964501
10	0xbd9154cd	-0.070962526
11	0x3d4af5a2	0.04955066
12	0x3bdaf0ad	0.006681523
13	0xbd99b1e4	-0.07504633
14	0xbc819ff9	-0.015823351
15	0xbd968d13	-0.073511265
16	0xbaf69955	-0.0018814007
17	0x3da1c9c2	0.078998104
18	0x3b1a3b20	0.0023533776
19	0x3c1a0ac5	0.009401982
20	0x3d021091	0.03175408
21	0xbd7f0f66	-0.062270544
22	0xbccb8fbe	-0.024848815
23	0xba724d16	-0.0009243054
24	0x3cc11d03	0.023573404
25	0xbdc14218	-0.094364345
26	0xbd70a851	-0.05875427
27	0xbd394296	-0.045229517
28	0x3c9b08da	0.01892512
29	0xbd9b86a6	-0.075940415
30	0x3ccbe54e	0.024889614
31	0x3c8840b0	0.016632408
32	0x3d16ee30	0.036848247
33	0xbdb61bb5	-0.088920034
34	0xbb27df91	-0.0025615434
35	0xbd846ebc	-0.064664334
36	0xbd84dd0d	-0.064874746
37	0x3bb94fe9	0.005655278
38	0x3b15d81b	0.0022864405
39	0x3d46b24f	0.048509892
40	0xbd79c70d	-0.060980845
41	0x3b343f16	0.0027503422
42	0xbd0ab356	-0.033862434
43	0xbd10438f	-0.03522068
44	0xbde33e7f	-0.110959046
45	0xbeab7b90	-0.33492708
46	0x3c4505b1	0.012025283
47	0x3c24e5e8	0.01006458
48	0x3d22fc86	0.039791606
49	0xbd58aeed	-0.052901197
50	0x3caee504	0.021349438
51	0x3d88f838	0.06687969
52	0xbd5937b8	-0.053031653
53	0x3cfb950b	0.030710718
54	0x3b17b00f	0.002314571
55	0xba6b7e01	-0.00089833146
56	0x38562a46	5.1060946e-05
57	0xbd92f314	-0.0717527
58	0xbd5924f3	-0.053013753
59	0x3bb561f2	0.0055353576
60	0x3cd8f190	0.026482373
61	0x3bb68544	0.0055700857
62	0xbb0ead81	-0.0021770897
63	0x3cb5f15a	0.022209812
64	0xbc064662	-0.0081954915
65	0xbdd875bd	-0.10569332
66	0x3cf6ec62	0.030142013
67	0xbd012045	-0.031524915
68	0xbd752a4b	-0.059854787
69	0xbd8aa827	-0.06770354
70	0x3bc5391a	0.00601877
71	0x3d45cb47	0.048289564
72	0x3b04d518	0.0020268615
73	0xbd781543	-0.06056715
74	0xbde46b8d	-0.11153326
75	0xbd602dbf	-0.054731127
76	0xbddb2d36	-0.10701983
77	0xbc66428e	-0.014053954
78	0xbce93426	-0.02846725
79	0x3d8cb8f9	0.06871218
80	0x36cb9357	6.067024e-06
81	0xbda245a8	-0.07923442
82	0x3cfd85f4	0.030947663
83	0xbea0815c	-0.31348693
84	0xbe0815f9	-0.13289632
85	0xbcf44c1b	-0.029821446
86	0x3d767528	0.060170323
87	0xba40ebc2	-0.00073593494
88	0x3d19f462	0.037586577
89	0x3c54796f	0.012968405
90	0xbc52cd54	-0.012866337
91	0x3d86cc77	0.06581967
92	0xbd65ef1a	-0.05613623
93	0xbd8487cc	-0.06471214
94	0x3b2421e8	0.0025044624
95	0xbd3ba998	-0.045816034
96	0x3c7fc371	0.015610562
97	0x3d8f1fd9	0.06988496
98	0x3b9b7f73	0.0047454177
99	0xbd161fce	-0.036651425
100	0x3ae82de8	0.0017713876
101	0x3c924b26	0.0178581
102	0xbd5755ec	-0.052572176
103	0xbd676e35	-0.056501586
104	0xbb22f8d1	-0.0024867544
105	0x3d7925d6	0.0608271
106	0xbc348de4	-0.0110201575
107	0x3d11f01b	0.035629373
108	0x3d77713d	0.060410727
109	0xbca05b33	-0.019574737
110	0x3b61ef0e	0.0034474763
111	0x3c614388	0.013749011
112	0xbd08f566	-0.033437155
113	0xbd90dffc	-0.07073972
114	0xbb0280a4	-0.0019913102
115	0xbbb82a0f	-0.005620248
116	0x3d314ae0	0.043284297
117	0xbe26f5e2	-0.16304734
118	0x3d291b19	0.041285608
119	0x3d473e4a	0.048643388
120	0x3b37e9ee	0.0028063017
121	0xbc4bd639	-0.012441211
122	0x3da1353c	0.07871482
123	0x3d3360bc	0.043793425
124	0x3c9673c3	0.018365746
125	0x3b34aa2f	0.0027567258
126	0x3d211dec	0.039335176
127	0xbb070f65	-0.002060854
